src/dqn_agent_10.pth (torch, 284888 bytes, 20 tensors)

fc1.weight f4 [128, 6]
-0.03284781 -0.17443551 0.44016978 1.0886296 -0.38175035 2.5057726 -0.028306643 -0.11720145
0.44081366 -0.7712188 0.0049143066 -0.87509716 -0.09061326 -0.13357745 0.19048946 0.39768463
-0.27581638 0.3726748 -0.39132902 0.28465948 -0.3095036 0.19384685 0.27953377 0.8561347
-0.016870191 0.24538447 -0.5743963 1.0152943 -0.10139657 1.6366369 -0.21901362 0.38660195
-0.31969142 -0.28033042 -0.15617184 -0.011996121 -0.03508982 0.25293002 -0.49600047 1.8445894
-0.29253924 3.0160952 -0.010831497 0.2521184 -0.54221195 1.8182447 -0.33906984 2.9773576
-0.029350622 0.34046358 -1.46799 0.8239358 -0.16230683 2.4728456 0.35255212 0.40824398
-0.20091356 -0.24677615 0.03576664 0.71060616 -0.032355495 0.3084922 0.5739165 1.5184362
-0.5014559 3.0115094 -0.3467071 0.3288694 -0.30203366 0.2833556 0.0024085438 -0.2354447
-0.009202437 -0.097601146 0.5408318 0.55232364 -0.10946405 0.9728729 -0.29501814 0.049902413
0.05661589 -0.4086786 0.04717359 0.87070125 -0.21020605 -0.012923589 0.3430081 -0.07943447
0.43953308 2.0478177 0.13017069 0.5883308 -1.7624884 1.858482 0.39798903 1.2240361
-0.016115533 -0.37877122 0.15994292 -0.21798259 0.042628434 -0.79195404 -0.0058661243 0.15238093
-0.24694434 -0.1466882 -0.28568313 -0.3728731 -0.16219057 -0.31829667 0.071239896 0.45789465
0.32447398 -1.4538041 -0.02889453 0.41751492 -1.2976192 1.0277442 -0.11980477 3.464864
-0.025864158 0.38390204 -0.1080792 1.405122 -0.12644196 2.4815023 -0.0044615907 0.40246022
-0.8721735 0.70548445 -0.11951584 0.95531535 -0.15371306 0.13538961 0.69727784 0.40966508
0.2547662 0.31508896 -0.3548362 0.2599011 0.15265429 -0.24282195 -0.0002682038 -0.2810854
-0.24535342 0.21931477 0.18234247 0.21450317 -0.311607 0.31076643 0.0013751838 0.009967114
1.8633085 0.94676644 -0.009770896 -0.2487237 -0.27912408 0.1490629 -0.082602434 0.0136991255
-0.29119372 0.031053288 -0.011320499 -0.22329248 0.6087219 -0.7771816 0.044426475 -2.900732
-0.04798507 0.036254182 -0.3157319 -0.124759726 -0.07845844 -0.23694882 -0.13320205 -0.11538092
0.32982993 0.32421058 -0.10714028 0.33503315 -0.12936708 -0.38351336 -0.3487223 0.121158466
-0.39179015 -0.15362908 -0.31377542 0.035360754 0.11299862 0.3076106 -0.2178424 -0.19852993
-0.18504752 -0.39413294 -0.35889643 -0.095496364 0.047900144 -0.29408434 -0.12550803 0.21273203
0.37966764 0.07714691 -0.12411105 0.03877192 0.21297616 -0.26339915 -0.18749717 -0.10641429
0.18969455 -1.25954 -0.030230422 0.48897907 -0.5896936 1.7606709 -0.23275606 2.6734877
-0.026927698 0.57506955 0.18581755 1.8548064 -0.3653315 2.3897703 -0.023758879 0.2998296
-0.48735473 0.7788967 -0.113805115 0.9740251 -0.29430237 0.013108064 0.34198266 -0.05960592
-0.102164425 0.049320783 -0.042387344 0.082186215 0.9451276 1.675708 -0.2862536 2.3428984
-0.0679707 0.26611158 0.115009636 -0.04708254 -0.23650153 -0.20238027 -0.09821661 -0.02904227
0.002006832 -0.07912415 -0.22548112 -0.37452704 0.013460544 0.111873396 0.074803345 -1.460708
00000000: 6d8b 06bd 399f 32be ef5d e13e 3758 8b3f
00000010: c874 c3be 945e 2040 55e3 e7bc 5007 f0bd
00000020: 54b2 e13e 986e 45bf 3108 a13b 5e06 60bf
00000030: 7293 b9bd 87c8 08be ab0f 433e 529d cb3e
00000040: ce37 8dbe 3bcf be3e 475c c8be e3be 913e
00000050: 4177 9ebe ca7f 463e 0d1f 8f3e a52b 5b3f
00000060: 5b33 8abc 1146 7b3e a30b 13bf 2af5 813f
00000070: 01a9 cfbd 517d d13f 1b45 60be b1f0 c53e
00000080: 98ae a3be 7887 8fbe 83eb 1fbe 618b 44bc
00000090: 58ba 0fbd 0b80 813e c6f3 fdbe 811b ec3f
000000a0: b4c7 95be b407 4140 9776 31bc aa15 813e
000000b0: 67ce 0abf 3ebc e83f 909a adbe 078d 3e40
000000c0: b770 f0bc 3e51 ae3e 19e7 bbbf 75ed 523f
000000d0: c333 26be 1a43 1e40 b681 b43e 5b05 d13e
000000e0: 49bc 4dbe e3b2 7cbe 0a80 123d 49ea 353f
000000f0: 3287 04bd b1f2 9d3e 31ec 123f 1e5c c23f
00000100: 6a5f 00bf 92bc 4040 9883 b1be 9261 a83e
00000110: 28a4 9abe fc13 913e a9d8 1d3b 6a18 71be
00000120: d1c5 16bc 1ce3 c7bd f473 0a3f 1565 0d3f
00000130: b02e e0bd 330e 793f 9e0c 97be 7966 4c3d
00000140: 10e6 673d 523e d1be 1839 413d 47e6 5e3f
00000150: 4140 57be 76bd 53bc c29e af3e 8aae a2bd
00000160: 7b0a e13e 720f 0340 774b 053e d99c 163f
00000170: 3899 e1bf bde2 ed3f 38c5 cb3e 37ad 9c3f
00000180: b904 84bc 4dee c1be 14c8 233e d436 5fbe
00000190: 279b 2e3d 80bd 4abf 9e38 c0bb bf09 1c3e
000001a0: fade 7cbe 6e35 16be 0f45 92be 39e9 bebe
000001b0: 4915 26be c8f7 a2be 39e6 913d 2b71 ea3e
000001c0: 7421 a63e 4116 babf 39b4 ecbc 84c4 d53e
000001d0: 6318 a6bf 1f8d 833f 345c f5bd 55c0 5d40
000001e0: 12e1 d3bc cf8e c43e a158 ddbd 0adb b33f
000001f0: 007a 01be efd0 1e40 8932 92bb 440f ce3e
00000200: c346 5fbf a19a 343f b9c4 f4bd 8c8f 743f
00000210: f566 1dbe 93a3 0a3e cd80 323f 9fbf d13e
00000220: b770 823e 5753 a13e 17ad b5be c211 853e
00000230: 6851 1c3e 51a6 78be b49d 8cb9 6dea 8fbe
00000240: ed3d 7bbe 0d94 603e fcb7 3a3e b8a6 5b3e
00000250: f48a 9fbe c71c 9f3e 833f b43a 1b4d 233c
00000260: e580 ee3f 495f 723f 1c16 20bc 6db1 7ebe
00000270: 5ae9 8ebe f2a3 183e 772b a9bd 4c72 603c
00000280: 5817 95be 7763 fe3c 9d79 39bc c9a6 64be
00000290: 33d5 1b3f 60f5 46bf 89f8 353d 98a5 39c0
000002a0: fe8b 44bd 447f 143d 9da7 a1be 0782 ffbd
000002b0: d2ae a0bd b6a2 72be 1e66 08be d54c ecbd
000002c0: 78df a83e eefe a53e 5d6c dbbd 7789 ab3e
000002d0: ce78 04be dd5b c4be bb8b b2be ee21 f83d
000002e0: b898 c8be f150 1dbe 2ca7 a0be 70d6 103d
000002f0: d26b e73d 237f 9d3e 1412 5fbe 6e4b 4bbe
00000300: 197d 3dbe cbcb c9be 46c1 b7be 9993 c3bd
00000310: f132 443d 3992 96be 2d85 00be 6dd6 593e
00000320: cc63 c23e 33ff 9d3d ef2d febd 4ecf 1e3d
00000330: 6c16 5a3e 41dc 86be 42ff 3fbe bcef d9bd
00000340: 4a3f 423e 9b38 a1bf caa5 f7bc 775b fa3e
00000350: 29f6 16bf aa5d e13f 9b57 6ebe 6c1a 2b40
00000360: 7a97 dcbc c237 133f f546 3e3e 4c6a ed3f
00000370: bb0c bbbe fff1 1840 fba1 c2bc 4483 993e
00000380: 8f86 f9be c665 473f a812 e9bd b559 793f
00000390: cdae 96be 35c3 563c 5a18 af3e 5625 74bd
000003a0: 953b d1bd 9704 4a3d 5a9e 2dbd 3f51 a83d
000003b0: e2f3 713f 9a7d d63f d58f 92be 0cf2 1540
000003c0: 3934 8bbd c73f 883e 2c8a eb3d 9fd9 40bd
000003d0: 752d 72be c63c 4fbe ca25 c9bd 0eea edbc
000003e0: 0e85 033b d80b a2bd 86e4 66be 02c2 bfbe
000003f0: 9d89 5c3c e11d e53d 7f32 993d 7bf8 babf

fc1.bias f4 [128]
0.17641748 0.33499083 0.15697776 -0.3638191 0.22300483 0.21670145 0.3211895 -0.08707
-0.39651003 0.20044261 0.14986147 -0.18020293 -0.05905221 -0.037361156 0.4819095 0.33990002
0.37524405 -0.2028374 0.4770635 -0.23873414 -0.008831901 0.4136297 0.17950888 -0.075991996
-0.15954943 -0.2633734 -0.18109976 -0.2364514 0.37254634 -0.3041771 -0.015338911 0.21086356
0.027123768 -0.034871943 0.26439738 0.2516891 -0.24135478 0.27005726 0.31078994 -0.21621506
-0.3335433 -0.35625118 0.3133481 0.07074177 0.012317771 0.2146265 0.2440051 -0.10736281
-0.10651079 0.43756813 0.078752495 -0.2541978 -0.28110278 -0.22492303 -0.016767083 -0.16981997
0.2618756 -0.31709823 0.34941122 -0.39504626 0.16519229 -0.006955535 0.040012732 0.052122187
-0.083483145 0.039083857 -0.31007308 0.30739576 0.20760131 0.061081123 0.109410524 0.28294638
0.3509706 -0.26240796 -0.2061324 0.15679964 -0.36767906 -0.2837945 0.3631009 0.03163728
0.46085495 0.3844774 0.06809873 0.21064372 -0.03858595 0.19903548 -0.19335522 -0.13748376
-0.22445756 -0.4192736 0.232972 -0.24307619 -0.22022976 -0.33477867 -0.32840517 0.29289007
-0.4058396 -0.04510332 0.16000724 0.36541736 -0.40726444 0.6177174 -0.121706754 0.33118904
-0.38996547 0.36614174 0.13147767 -0.105943464 0.15223162 0.27532545 -0.3899978 0.39892554
0.011199686 -0.0002008 -0.118533276 0.06577141 0.40213972 0.21677718 -0.22870433 -0.38405734
0.22723003 0.33532864 0.012980752 -0.028100286 -0.036288165 -0.2538344 -0.2606402 -0.3188733
00000000: c9a6 343e eb83 ab3e c7be 203e 7f46 babe
00000010: 615b 643e fce6 5d3e f372 a43e c251 b2bd
00000020: 5d03 cbbe d440 4d3e 4975 193e 1e87 38be
00000030: bbe0 71bd 0308 19bd d8bc f63e 6007 ae3e
00000040: fd1f c03e 9bb4 4fbe ab41 f43e b976 74be
00000050: adb3 10bc 46c7 d33e 2dd1 373e b1a1 9bbd
00000060: ed60 23be e1d8 86be 3772 39be 5120 72be
00000070: 65be be3e 1abd 9bbe 0e50 7bbc 9eec 573e
00000080: aa32 de3c e2d5 0ebd 185f 873e 65dd 803e
00000090: b525 77be f244 8a3e dc1f 9f3e 7b67 5dbe
000000a0: 30c6 aabe 8e66 b6be 2a6f a03e 10e1 903d
000000b0: 7ad0 493c 0dc7 5b3e 79dc 793e 08e1 dbbd
000000c0: 5422 dabd ee08 e03e fd48 a13d 3726 82be
000000d0: b4ec 8fbe 3952 66be 1f5b 89bc 49e5 2dbe
000000e0: 8f14 863e b35a a2be 07e6 b23e 8143 cabe
000000f0: 2b28 293e 42eb e3bb 64e4 233d 137e 553d
00000100: 36f9 aabd 6516 203d e6c1 9ebe fa62 9d3e
00000110: 7095 543e 3330 7a3d a012 e03d 59de 903e
00000120: 6bb2 b33e 565a 86be 5f14 53be 1690 203e
00000130: 6e40 bcbe 834d 91be 5ce8 b93e 1896 013d
00000140: 2ef5 eb3e 39da c43e 5977 8b3d fdb2 573e
00000150: 4d0c 1ebd f5cf 4b3e e9fe 45be 8bc8 0cbe
00000160: 34d8 65be 08ab d6be 3690 6e3e f7e8 78be
00000170: e983 61be 1c68 abbe b924 a8be b0f5 953e
00000180: 35ca cfbe 42be 38bd f0d8 233e fc17 bb3e
00000190: f784 d0be ba22 1e3f 6441 f9bd 9c91 a93e
000001a0: 8ea9 c7be ee76 bb3e 15a2 063e e3f8 d8bd
000001b0: 9be2 1b3e 75f7 8c3e cbad c7be f83f cc3e
000001c0: e37e 373c d78d 52b9 93c1 f2bd 29b3 863d
000001d0: 42e5 cd3e d6fa 5d3e 7831 6abe 2aa3 c4be
000001e0: fdae 683e 32b0 ab3e 38ad 543c 9232 e6bc
000001f0: e6a2 14bd 95f6 81be a272 85be 5c43 a3be

fc2.weight f4 [256, 128]
0.04147541 0.01586497 -0.098243065 -0.053750142 0.011616997 -0.055632044 0.021753186 0.047619455
0.088905804 0.07385136 0.09672459 -0.0574619 -0.04170236 -0.093900755 -0.073300175 -0.024005745
-0.14550173 -0.067368604 -0.07113158 0.11614388 0.09939119 0.22808984 0.030768186 -0.17399465
-0.18527545 0.017382331 -0.064913996 -0.16466987 0.04619988 -0.045794364 0.07442884 -0.032283362
0.10978632 0.060235355 0.008834942 0.037820235 0.080879055 0.1293133 0.08854323 -0.0024362926
-0.1631879 0.015797697 0.014073859 -0.008440535 0.015970424 0.01041904 -0.042597137 0.15283114
0.019663248 -0.004338095 0.0075763534 0.057045598 0.1173569 0.021661034 0.10859309 -0.07320576
0.053875305 0.1711689 0.059327763 0.105580315 0.03331102 0.16473603 0.0030708346 0.1356832
-0.06283134 0.09277052 -0.16021255 -0.091732495 -0.058747154 -0.07151496 0.004697147 -0.13526887
0.18802254 -0.042698294 -0.11855076 0.27412257 -0.046404973 -0.04299224 0.0072793374 -0.20714135
-0.000117260104 0.08979878 0.03704358 0.0319192 0.011990251 0.12939134 -0.12738703 -0.11540369
-0.021579023 -0.10301374 -0.00054904714 -0.08706535 -0.09372668 0.00017526661 0.11844604 0.048559602
-0.034515712 0.06525616 -0.08458919 -0.029119527 -0.062137242 0.022944061 0.007519352 -0.25667915
-0.10070905 0.039250057 -0.027107965 0.06675741 -0.10200813 0.045535494 0.00792675 -0.0850203
0.105565235 -0.22898048 0.1294375 -0.024595888 -0.14778875 -0.14905514 -0.06314008 0.06394108
0.10588814 0.0025769153 0.08835574 0.04512354 0.0680876 -0.031325504 -0.12256958 0.13095516
0.025279008 0.056521725 -0.017631756 -0.10318553 0.008445903 -0.050771903 -0.018445436 0.021747326
-0.059120182 -0.044706475 -0.009192079 -0.17262568 0.016501566 -0.087408364 0.03941511 -0.073084064
0.03872925 -0.11903758 0.0027425068 -0.03643255 -0.0010417164 -0.16138294 0.04463046 -0.099508576
-0.062773585 0.43379614 -0.03639586 0.05429939 0.063241236 -0.07765343 0.057007942 0.113975205
0.07980422 0.085357614 -0.026254585 0.07343591 0.015599907 -0.06012701 0.039894145 -0.030985896
-0.07817347 -0.04064502 -0.018552655 0.041214563 -0.029048553 -0.06503346 0.0012210149 0.10130516
0.059313014 -0.03369738 0.022198109 -0.05779317 -0.013825934 -0.032785136 0.007913428 0.028621828
-0.030487671 0.047358543 0.0385143 -0.066130884 0.015245043 0.19500881 0.04831999 0.0075610117
0.0010095193 0.079086326 0.067759454 -0.062311996 -0.08771042 0.010851432 -0.029754436 -0.03113166
-0.021415422 0.054342933 -0.02620287 0.04796814 0.11472228 -0.13948232 -0.018341724 0.04240151
-0.0061174147 -0.02344909 0.038002938 -0.07535977 -0.017276762 0.03288838 -0.061423063 -0.027805196
0.1108971 -0.014783842 -0.13599163 0.029797306 -0.119036555 -0.13995521 -0.05405394 -0.057022046
-0.076624945 0.013959439 -0.0012428166 -0.12957811 -0.003426946 -0.012368715 0.03525236 -0.15143919
-0.13202015 0.10130415 -0.05410041 0.068353415 0.0054681352 -0.009313112 -0.020817116 0.026700256
0.046058923 -0.16311812 -0.0138767995 0.008310057 -0.12696946 -0.06905635 -0.022969095 0.17507695
0.04556997 0.080181405 0.07445512 -0.06444216 -0.071443036 -0.041234832 -0.03310001 0.027499337
00000000: 1fe2 293d 41f7 813c a933 c9bd 1c29 5cbd
00000010: 3855 3e3c 6dde 63bd bd33 b23c 9e0c 433d
00000020: 3f14 b63d 623f 973d 8b17 c63d 2b5d 6bbd
00000030: 18d0 2abd 0a4f c0bd 671e 96bd b2a7 c4bc
00000040: 68fe 14be 8df8 89bd 6fad 91bd d8dc ed3d
00000050: 9c8d cb3d 6290 693e 900d fc3c a72b 32be
00000060: d9b8 3dbe 6465 8e3c a1f1 84bd 389f 28be
00000070: 163c 3d3d df92 3bbd 266e 983d 8f3b 04bd
00000080: a6d7 e03d 59b9 763d 6fc0 103c 64e9 1a3d
00000090: eba3 a53d b56a 043e 2756 b53d 35aa 1fbb
000000a0: bb1a 27be 2c6a 813c 0b96 663c 2b4a 0abc
000000b0: 68d4 823c 9fb4 2a3c 567a 2ebd c47f 1c3e
000000c0: d214 a13c 9426 8ebb 0f43 f83b a5a8 693d
000000d0: d058 f03d 7b72 b13c 0e66 de3d e7ec 95bd
000000e0: 5aac 5c3d e646 2f3e ab01 733d 7e3a d83d
000000f0: 2371 083d 90b0 283e 0e40 493b 89f0 0a3e
00000100: b8ad 80bd 78fe bd3d c20e 24be 3fde bbbd
00000110: dba0 70bd 6f76 92bd 86ea 993b ec83 0abe
00000120: fb88 403e 68e4 2ebd beca f2bd cb59 8c3e
00000130: 2413 3ebd a218 30bd 8287 ee3b dd1c 54be
00000140: 8ae9 f5b8 6ce8 b73d 02bb 173d b5bd 023d
00000150: c272 443c 2a7f 043e bf71 02be c558 ecbd
00000160: 7ec6 b0bc def8 d2bd eeed 0fba 514f b2bd
00000170: c6f3 bfbd c6c7 3739 d693 f23d 6fe6 463d
00000180: 5960 0dbd 06a5 853d 193d adbd 138c eebc
00000190: 9f83 7ebd 2ff5 bb3c e564 f63b 736b 83be
000001a0: 8c40 cebd abc4 203d 8611 debc 1cb8 883d
000001b0: a3e9 d0bd 6d83 3a3d 33df 013c 1f1f aebd
000001c0: 9632 d83d dc79 6abe 448b 043e 517d c9bc
000001d0: ef55 17be e9a1 18be 964f 81bd 8af3 823d
000001e0: e2db d83d 77e1 283b dbf3 b43d 76d3 383d
000001f0: 8371 8b3d 2c4f 00bd c305 fbbd 1c19 063e
00000200: ec15 cf3c 5383 673d 7970 90bc ef52 d3bd
00000210: af60 0a3c 33f6 4fbd e21a 97bc 7327 b23c
00000220: 0128 72bd 231e 37bd 609a 16bc c9c4 30be
00000230: 4b2e 873c 2803 b3bd bd71 213d 19ad 95bd
00000240: 90a2 1e3d fac9 f3bd a1bb 333b 4c3a 15bd
00000250: 348a 88ba 9241 25be 6ece 363d 27cb cbbd
00000260: 708f 80bd 871a de3e d313 15bd 0a69 5e3d
00000270: 9f84 813d c308 9fbd 2981 693d d56b e93d
00000280: 6570 a33d f9cf ae3d db13 d7bc 9165 963d
00000290: c196 7f3c bd47 76bd 0b68 233d 22d6 fdbc
000002a0: 6a19 a0bd 647b 26bd bdfb 97bc 9ad0 283d
000002b0: 3bf7 edbc 4330 85bd 760a a03a 1479 cf3d
000002c0: 34f2 723d 4406 0abd cfd8 b53c 88b8 6cbd
000002d0: 2c86 62bc b549 06bd 53a7 013c 5378 ea3c
000002e0: 48c1 f9bc 08fb 413d 2cc1 1d3d a16f 87bd
000002f0: 58c6 793c 64b0 473e 2feb 453d 5dc2 f73b
00000300: d951 843a 03f8 a13d 78c5 8a3d dd3a 7fbd
00000310: 85a1 b3bd 34ca 313c 93bf f3bc d307 ffbc
00000320: 656f afbc b296 5e3d 67a7 d6bc 3e7a 443d
00000330: 84f3 ea3d 74d4 0ebe 6241 96bc 35ad 2d3d
00000340: 9874 c8bb 4e18 c0bc f8a8 1b3d 3956 9abd
00000350: ff87 8dbc f7b5 063d c096 7bbd b9c7 e3bc
00000360: 051e e33d ed37 72bc 6441 0bbe 7b19 f43c
00000370: 70c9 f3bd 6b50 0fbe aa67 5dbd f38f 69bd
00000380: 8aed 9cbd 21b6 643c 01e6 a2ba 20b0 04be
00000390: 9d96 60bb 27a6 4abc c764 103d e012 1bbe
000003a0: 4a30 07be 8d78 cf3d 6498 5dbd e0fc 8b3d
000003b0: 0b2e b33b 0696 18bc a888 aabc 7fba da3c
000003c0: 48a8 3c3d 7008 27be 845b 63bc e826 083c
000003d0: 4804 02be 6a6d 8dbd af29 bcbc 5f47 333e
000003e0: 94a7 3a3d 2636 a43d ed7b 983d 40fa 83bd
000003f0: ba50 92bd dbe5 28bd e093 07bd 4a46 e13c

fc2.bias f4 [256]
-0.064478174 -0.2094091 0.08138097 0.038188674 0.21071677 -0.11780363 0.19339684 -0.038436066
-0.14370975 -0.20147245 -0.009605991 -0.252654 -0.049458534 0.005382517 -0.10963819 0.07989259
-0.11532294 -0.15326454 0.012836348 -0.16374724 0.14159378 -0.15999113 -0.043880157 0.2641466
-0.15717405 0.046607323 0.02888991 -0.304452 0.11152662 -0.25527877 -0.050097473 0.15415992
0.104953036 0.07286346 -0.1384024 -0.14308867 -0.0729217 0.25285298 -0.26531008 -0.18331249
-0.19398129 -0.10946996 -0.0615208 -0.20908338 0.086958624 -0.038600706 -0.13719039 0.22747967
0.13512048 0.017078426 -0.21639247 -0.1821106 0.025528647 -0.12709332 -0.2860951 -0.09336304
-0.08756854 0.14320973 -0.00967077 0.023911623 0.032964185 0.07163991 -0.06366807 -0.0054402347
-0.19724704 -0.10693025 -0.24101378 0.021533944 -0.052508533 -0.27935597 -0.14683896 -0.20425674
-0.28278407 -0.17107806 0.064256676 -0.09344243 -0.22550894 -0.0866371 -0.18085167 0.22775325
-0.16454598 -0.24729593 0.12265927 0.075393066 -0.049732104 -0.08114328 -0.08842444 -0.0798273
0.042546403 0.0043749814 -0.094261244 -0.13551173 -0.21312022 -0.054245334 0.07170661 0.14612298
-0.036882553 0.22728759 -0.25029773 -0.29283977 -0.27460897 -0.19470045 -0.19048716 -0.17490883
-0.17627938 0.098352075 0.053645547 0.21239756 -0.19284713 -0.14530355 -0.10310311 -0.24360761
0.19313246 0.24165262 -0.07620054 0.2618349 -0.06587588 -0.09830945 0.07371963 -0.05241263
0.10302342 -0.2270639 0.05609262 -0.04842198 -0.06907817 -0.10785448 0.19270276 -0.12666361
-0.34522203 -0.19418262 0.0913747 0.0038682187 -0.057960767 0.043077428 -0.152515 0.09301864
-0.07668312 0.3690986 0.16676699 -0.09532995 -0.04366724 0.23657753 -0.17869624 -0.19819061
-0.3053079 -0.31738064 -0.29312548 0.13184007 -0.16000824 0.13279007 -0.08295157 -0.21151957
0.24853683 0.17397341 -0.1379164 -0.059768688 -0.13758093 -0.28111556 0.036230505 -0.20566954
0.06499058 -0.19889519 0.08644469 -0.24163264 -0.10417207 -0.29814738 -0.19354811 -0.28101197
-0.31656432 0.15101099 -0.22366537 -0.016100202 -0.1328086 0.04710722 -0.12654978 -0.05283669
0.16398619 0.16453496 -0.17214507 -0.13895555 0.3014149 -0.033463735 -0.057812918 0.00073562615
0.27180997 -0.21654947 0.08571619 -0.04213711 -0.1368128 0.034166966 -0.021714037 -0.042610575
-0.09069715 0.048921485 -0.172374 -0.015574893 0.059841264 0.10508608 -0.19616224 -0.22739315
-0.20147696 -0.122564204 0.059110627 -0.13235995 0.01826328 -0.09658085 -0.13539378 0.087536946
-0.23064372 -0.1849083 0.16475405 0.34745225 -0.12822783 -0.32164034 0.18385547 0.034954365
-0.060425535 -0.11500581 -0.25179112 -0.105352364 -0.1804559 0.118070014 -0.08007109 0.07791201
-0.06326254 0.123679556 0.24189372 -0.094867244 0.17863053 0.058839265 -0.008069179 -0.057645466
0.18695247 -0.3329337 0.03915441 0.10897626 -0.18929294 0.06294039 0.08241829 0.2427687
-0.09938802 -0.29339105 0.09945969 0.20546244 -0.17724763 -0.33105284 -0.23259014 -0.3380166
-0.20510326 0.12504913 0.23350397 -0.015988806 0.12328599 0.0823068 0.11833965 -0.10050484
00000000: 220d 84bd 576f 56be 11ab a63d ba6b 1c3d
00000010: 23c6 573e 0843 f1bd d209 463e 236f 1dbd
00000020: a628 13be cb4e 4ebe 7262 1dbc dd5b 81be
00000030: 0895 4abd d35f b03b fd89 e0bd ba9e a33d
00000040: 6f2e ecbd 61f1 1cbe 8c4f 523c 5bad 27be
00000050: f6fd 103e b7d4 23be aebb 33bd 393e 873e
00000060: 3cf2 20be 52e7 3e3d 88aa ec3c 22e1 9bbe
00000070: 1268 e43d e6b3 82be 0233 4dbd 19dc 1d3e
00000080: 9ef1 d63d 7039 953d 5cb9 0dbe d685 12be
00000090: f957 95bd f275 813e b9d6 87be 45b6 3bbe
000000a0: 08a3 46be c931 e0bd 3cfd 7bbd f419 56be
000000b0: 5d17 b23d c61b 1ebd a37b 0cbe 6ef0 683e
000000c0: 065d 0a3e 0ee8 8b3c fd95 5dbe 337b 3abe
000000d0: 7421 d13c c024 02be 0f7b 92be 1f35 bfbd
000000e0: 2257 b3bd 92a5 123e 2672 1ebc 4fe2 c33c
000000f0: 7405 073d f2b7 923d 6864 82bd ff43 b2bb
00000100: 21fb 49be 3ffe dabd 51cc 76be f467 b03c
00000110: 3013 57bd bf07 8fbe f45c 16be ae28 51be
00000120: 13c9 90be 162f 2fbe 0199 833d bf5e bfbd
00000130: d1eb 66be cb6e b1bd 2e31 39be 2638 693e
00000140: be7e 28be 253b 7dbe c934 fb3d ae67 9a3d
00000150: e4b3 4bbd 732e a6bd df17 b5bd 7f7c a3bd
00000160: 2345 2e3d 015c 8f3b 0a0c c1bd 96c3 0abe
00000170: 303c 5abe 5b30 5ebd eada 923d 43a1 153e
00000180: 2912 17bd 14be 683e 0627 80be 18ef 95be
00000190: 8c99 8cbe 8e5f 47be 110f 43be 4d1b 33be
000001a0: 9582 34be d06c c93d 6fbb 5b3d bf7e 593e
000001b0: b879 45be 74ca 14be b927 d3bd 4674 79be
000001c0: 84c4 453e c973 773e 070f 9cbd 390f 863e
000001d0: efe9 86bd 7756 c9bd 51fa 963d a0ae 56bd
000001e0: f1fd d23d 7083 68be 60c1 653d 2056 46bd
000001f0: db78 8dbd cfe2 dcbd df53 453e 1bb4 01be
00000200: f1c0 b0be cfd7 46be a922 bb3d f181 7d3b
00000210: 4568 6dbd f571 303d e42c 1cbe 8f80 be3d
00000220: 0a0c 9dbd 7efa bc3e f7c4 2a3e 593c c3bd
00000230: 6bdc 32bd 6141 723e 26fc 36be 7bf2 4abe
00000240: 5151 9cbe b77f a2be 8b14 96be 1501 073e
00000250: 33d9 23be 1ffa 073e 83e2 a9bd 9698 58be
00000260: 7080 7e3e 1626 323e f539 0dbe 03d0 74bd
00000270: 04e2 0cbe 61ee 8fbe 7066 143d 099b 52be
00000280: c819 853d 2eab 4bbe ea09 b13d 8c6e 77be
00000290: 2b58 d5bd c6a6 98be 7a31 46be cde0 8fbe
000002a0: b814 a2be a0a2 1a3e 8908 65be 92e4 83bc
000002b0: fafe 07be 80f3 403d 4496 01be 496b 58bd
000002c0: ffeb 273e da7b 283e cc46 30be 5d4a 0ebe
000002d0: 0e53 9a3e 4511 09bd 3dcd 6cbd 09d7 403a
000002e0: ad2a 8b3e 25bf 5dbe f88b af3d f697 2cbd
000002f0: a818 0cbe a9f2 0b3d a3e1 b1bc 6d88 2ebd
00000300: 6dbf b9bd e561 483d cf82 30be d62d 7fbc
00000310: 1d1c 753d 5f37 d73d c1de 48be c0d9 68be
00000320: fa4f 4ebe f102 fbbd fc1d 723d 5e89 07be
00000330: e09c 953c 2ecc c5bd aba4 0abe 9246 b33d
00000340: de2d 6cbe 9a58 3dbe 49b5 283e 43e5 b13e
00000350: 284e 03be 0bae a4be 9c44 3c3e 4f2c 0f3d
00000360: c480 77bd 2b88 ebbd c4ea 80be fbc2 d7bd
00000370: 6ec9 38be b1ce f13d 50fc a3bd 5590 9f3d
00000380: ca8f 81bd b54b fd3d fdb2 773e c249 c2bd
00000390: ecea 363e 7101 713d 9734 04bc a71d 6cbd
000003a0: 7870 3f3e 4976 aabe 6060 203d f22e df3d
000003b0: 02d6 41be e4e6 803d ecca a83d 5c98 783e
000003c0: f28b cbbd 5a37 96be 86b1 cb3d bf64 523e
000003d0: 6780 35be c27f a9be 1c2c 6ebe 8310 adbe
000003e0: 9706 52be e10c 003e aa1b 6f3e f5fa 82bc
000003f0: 5d7d fc3d 7890 a83d 0f5c f23d 7bd5 cdbd

fc3.weight f4 [128, 256]
-0.10440821 0.1656931 0.016338862 0.09499537 0.002051282 -0.13447757 -0.08799045 0.0088779
0.123359345 0.009197322 -0.102925844 -0.054457627 -0.1543733 -0.011921294 -0.0036962174 0.04544454
0.023224015 0.06920273 0.013649806 0.0019324932 0.014549962 -0.11682995 -0.009062895 0.021213677
-0.12260206 0.06785624 0.01229529 -0.11862826 0.109907374 -0.059615053 0.02221621 0.096742555
0.0159367 0.055059373 0.08887404 0.054947674 0.0253892 -0.065512195 -0.08603625 -0.01567106
-0.040319063 0.008626835 -0.08695727 0.10601157 -0.06724626 -0.14341207 -0.1953461 -0.025184631
-0.008116943 -0.03428211 -0.07769025 -0.08983761 -0.02137857 0.022395292 -0.07872437 0.027111208
0.030367618 -0.101020254 -0.04606965 0.03749894 -0.0944193 0.06866482 0.004149629 -0.07051974
0.14002733 -0.17683302 -0.041115418 -0.0029115165 0.0007470591 -0.08330088 -0.06266367 0.083927676
-0.21866353 0.006174697 -0.11371656 -0.054051228 0.019000333 0.1155634 -0.24794665 0.07447073
-0.041212868 -0.05255077 0.03741712 0.106634445 -0.11560131 -0.098195195 0.037606753 -0.072904006
0.04021103 -0.019613227 0.056212626 -0.08959396 -0.23346455 -0.06021421 0.07640757 0.059094362
0.06414256 -0.10285772 -0.08251587 -0.16663471 0.012783577 -0.042015802 -0.03313958 -0.26798066
-0.21016286 0.017930323 -0.07328841 -0.05080829 -0.062053856 0.04160195 -0.011073767 -0.14898704
0.01720749 -0.09052534 -0.023406506 0.05195337 -0.033160128 -0.08871079 0.09041915 0.042687614
0.004823692 -0.26028705 -0.047443826 0.011467489 0.03446435 0.05687887 -0.07313942 0.02632259
-0.06840123 0.07674444 -0.025892703 0.047094766 -0.008131592 -0.050338358 -0.07039664 -0.051137436
-0.16178432 -0.053575322 -0.11499265 -0.08389391 0.081966296 -0.09662113 -0.008333026 0.1243157
-0.07504228 0.04089207 -0.05425043 -0.083806984 0.094308585 -0.09552252 0.0567028 0.15488511
-0.14039794 0.0053781983 -0.16378443 -0.0037295 0.11148135 -0.10887087 -0.014708906 0.27590343
0.039028533 -0.021029627 0.074592985 -0.19958729 -0.21533982 0.0012249582 -0.011103887 -0.11835967
-0.071191296 -0.08570641 -0.046125337 0.110839896 -0.24082203 0.046951853 -0.12428437 -0.017044732
-0.008392028 -0.09356394 -0.0048815967 -0.16349147 0.01809798 -0.022093313 0.056269463 -0.05361952
-0.030315273 -0.040137988 0.060143895 -0.096972115 0.060799725 0.090030394 0.050757013 -0.12680669
-0.02057981 -0.004295922 -0.052824844 0.016719004 0.0222227 -0.042188548 -0.21042705 -0.14955045
-0.040098667 0.068330385 -0.11254742 0.09005405 0.0061717876 -0.02643411 0.068883374 -0.07703818
-0.18841945 -0.05712911 0.014884645 -0.010300104 -0.22729129 -0.022484016 -0.07194996 -0.04145741
-0.06560468 0.1302813 -0.09958722 -0.12761414 0.13678046 0.0021465865 -0.030853434 0.05023567
0.009609564 -0.08430624 -0.035003368 0.006800293 -0.06307589 -0.12508988 0.040719077 -0.100573316
-0.0919864 -0.18872818 -0.08422414 -0.052365948 -0.2547759 -0.0103430655 0.10957065 -0.082268834
0.0905582 -0.15155575 0.0039283587 -0.0313743 -0.035156213 -0.03738461 -0.0738049 -0.061213974
-0.033116356 0.037622366 -0.10458791 0.08410511 -0.067713596 0.05430344 -0.11013807 -0.014804906
00000000: f9d3 d5bd 74ab 293e 14d9 853c ef8c c23d
00000010: cd6e 063b 7db4 09be 5634 b4bd 9d74 113c
00000020: d3a3 fc3d 5db0 163c c9ca d2bd f60e 5fbd
00000030: 0914 1ebe 8851 43bc 3d3c 72bb 0e24 3a3d
00000040: 4a40 be3c 29ba 8d3d 70a3 5f3c b64b fd3a
00000050: f762 6e3c 8a44 efbd 897c 14bc 4ec8 ad3c
00000060: ca16 fbbd 36f8 8a3d 2f72 493c 60f3 f2bd
00000070: 1e17 e13d ea2e 74bd c5fe b53c f620 c63d
00000080: af8d 823c f085 613d 9803 b63d d010 613d
00000090: 03fd cf3c 422b 86bd c633 b0bd 9860 80bc
000000a0: 9a25 25bd 9257 0d3c a716 b2bd 981c d93d
000000b0: 68b8 89bd 9dda 12be cf08 48be 0050 cebc
000000c0: edfc 04bc 666b 0cbd 111c 9fbd c8fc b7bd
000000d0: 1c22 afbc 5576 b73c 3e3a a1bd 5318 de3c
000000e0: 83c5 f83c b5e3 cebd 88b3 3cbd 7d98 193d
000000f0: e85e c1bd 24a0 8c3d 9cf9 873b a76c 90bd
00000100: 5363 0f3e b713 35be a468 28bd 24cf 3ebb
00000110: 4ad6 433a a799 aabd cf55 80bd 46e2 ab3d
00000120: 55e9 5fbe 1d55 ca3b 3ae4 e8bd d264 5dbd
00000130: 96a6 9b3c 81ac ec3d bae5 7dbe 1c84 983d
00000140: d3ce 28bd 7a3f 57bd b242 193d 2963 da3d
00000150: 61c0 ecbd 901a c9bd 8a09 1a3d b24e 95bd
00000160: 52b4 243d ebab a0bc 363f 663d 0a7d b7bd
00000170: 5511 6fbe 2da3 76bd 927b 9c3d ee0c 723d
00000180: 2d5d 833d 11a7 d2bd 15fe a8bd 4aa2 2abe
00000190: 3572 513c c318 2cbd 5ebd 07bd c334 89be
000001a0: ef34 57be 9de2 923c 3c18 96bd 5a1c 50bd
000001b0: 2f2c 7ebd ce66 2a3d bf6e 35bc 0f90 18be
000001c0: b9f6 8c3c 5965 b9bd 00bf bfbc 0fcd 543d
000001d0: ead2 07bd 01ae b5bd ad2d b93d 35d9 2e3d
000001e0: 1010 9e3b 5844 85be 7554 42bd 23e2 3b3c
000001f0: 7e2a 0d3d d1f9 683d 1fca 95bd 79a2 d73c
00000200: f215 8cbd 302c 9d3d ef1c d4bc 71e6 403d
00000210: 5e3a 05bc 982f 4ebd 1d2c 90bd 7d75 51bd
00000220: caaa 25be cc71 5bbd 4481 ebbd 92d0 abbd
00000230: f2dd a73d 4de1 c5bd 3f87 08bc 3b99 fe3d
00000240: c4af 99bd 717e 273d b335 5ebd ffa2 abbd
00000250: dc24 c13d 50a1 c3bd 3241 683d 349a 1e3e
00000260: 7ac4 0fbe 993b b03b 1bb7 27be a16a 74bb
00000270: 5650 e43d b1f7 debd a0fd 70bc 3743 8d3e
00000280: 62dc 1f3d 5346 acbc 35c4 983d 9c60 4cbe
00000290: 0b82 5cbe c78e a03a 14ed 35bc 8e66 f2bd
000002a0: becc 91bd d886 afbd eced 3cbd 0700 e33d
000002b0: 0d9a 76be 9650 403d ce88 febd 65a1 8bbc
000002c0: b77e 09bc 739e bfbd cdf5 9fbb 4f6a 27be
000002d0: 3742 943c 09fd b4bc cf7a 663d 24a0 5bbd
000002e0: bc57 f8bc bb67 24bd 7259 763d 5199 c6bd
000002f0: 2209 793d db61 b83d 96e6 4f3d 9dd9 01be
00000300: fd96 a8bc cec4 8cbb dd5e 58bd 4bf6 883c
00000310: 610c b63c e6cd 2cbd 307a 57be c123 19be
00000320: 803e 24bd cdf0 8b3d 437f e6bd 426e b83d
00000330: b53c ca3b 598c d8bc ba12 8d3d 31c6 9dbd
00000340: 07f1 40be 3700 6abd bade 733c c4c1 28bc
00000350: 0cbf 68be 6630 b8bc 805a 93bd 3fcf 29bd
00000360: bf5b 86bd 7668 053e 62f4 cbbd 48ad 02be
00000370: 2d10 0c3e bfad 0c3b 57c0 fcbc ebc3 4d3d
00000380: 6f71 1d3c c0a8 acbd b15f 0fbd fed4 de3b
00000390: ef2d 81bd 9017 00be 0cc9 263d 62f9 cdbd
000003a0: 5e63 bcbd f641 41be b57d acbd ad7d 56bd
000003b0: fd71 82be f675 29bc 9466 e03d 907c a8bd
000003c0: 9476 b93d 6e31 1bbe 76b9 803b 5782 00bd
000003d0: f6ff 0fbd 9b20 19bd 0627 97bd 81bb 7abd
000003e0: 04a5 07bd e919 1a3d 3032 d6bd 4d3f ac3d
000003f0: 6dad 8abd 496d 5e3d 1290 e1bd 4790 72bc

fc3.bias f4 [128]
0.8336738 0.7891726 0.8190905 0.7477676 0.75547945 0.5966667 0.77411723 0.57763636
0.7239398 0.7875636 0.6933617 0.80016184 0.77033645 0.5879367 0.4241016 0.43847808
0.78533787 0.6176757 0.5353269 0.85120344 0.8023641 0.7969163 0.47128215 0.8481203
0.5855657 0.87924105 0.53463745 0.8193683 0.49791223 0.6222169 0.5920477 0.88053703
0.7827238 0.7649405 0.5961657 0.6105946 0.7869432 0.5236717 0.90178317 0.7997039
0.8018034 0.9537221 0.8561372 0.6109652 0.8518379 0.839104 0.77589375 0.9764959
0.83201385 0.7637789 0.83337873 0.79081905 0.73839605 0.5751471 0.7452189 0.75578105
0.5794823 0.46939883 0.4813442 0.63143176 0.5932471 0.8799244 0.8529238 0.77343917
0.6079722 0.554543 0.46580487 0.5054988 0.7601802 0.63670933 0.643251 0.7982411
0.8231918 0.53774226 0.70145315 0.57081556 0.545549 0.8301672 0.7987757 0.91941065
0.8753243 0.82476026 0.5435583 0.80048686 0.5733786 0.63646245 0.9035643 0.84222287
0.8452204 0.548527 0.5181502 0.7793897 0.7633669 0.6804296 0.45293826 0.80013835
0.80446887 0.7472547 0.8001876 0.77411544 0.83432335 0.87211466 0.6532145 0.7508009
0.8333156 0.59083486 0.624628 0.6958073 0.8597397 0.5954783 0.8445258 0.8305404
0.77631253 0.80476546 0.58042014 0.8071313 0.81876874 0.86076146 0.5356135 0.83572644
0.5149373 0.9466671 0.8500809 0.78205067 0.8516427 0.43686146 0.5687232 0.5489638
00000000: a56b 553f 3707 4a3f eaaf 513f b36d 3f3f
00000010: 1a67 413f 26bf 183f 8c2c 463f fadf 133f
00000020: 1e54 393f c59d 493f 2780 313f 68d7 4c3f
00000030: c534 453f 0583 163f d823 d93e 3380 e03e
00000040: e70b 493f ff1f 1e3f 2f0b 093f 78e8 593f
00000050: bc67 4d3f b502 4c3f e54b f13e 691e 593f
00000060: a2e7 153f f115 613f 00de 083f 1fc2 513f
00000070: 5aee fe3e 9b49 1f3f 7090 173f e06a 613f
00000080: 9660 483f 24d3 433f 519e 183f ed4f 1c3f
00000090: 1c75 493f 590f 063f 43db 663f 65b9 4c3f
000000a0: fd42 4d3f 2227 743f cf2b 5b3f 3768 1c3f
000000b0: 0c12 5a3f 85cf 563f f9a0 463f a3fb 793f
000000c0: dcfe 543f 0487 433f 4f58 553f 1e73 4a3f
000000d0: 8607 3d3f d73c 133f aac6 3e3f de7a 413f
000000e0: f458 143f 0b55 f03e bf72 f63e 83a5 213f
000000f0: 0bdf 173f ba42 613f 3759 5a3f 1c00 463f
00000100: 11a4 1b3f 88f6 0d3f fa7d ee3e 5f68 013f
00000110: 2b9b 423f 62ff 223f 19ac 243f 8759 4c3f
00000120: b3bc 523f 7aa9 093f 6f92 333f f820 123f
00000130: 19a9 0b3f d685 543f 907c 4c3f 7f5e 6b3f
00000140: 4115 603f 7d23 533f a326 0b3f b5ec 4c3f
00000150: f1c8 123f 34ef 223f fd4f 673f eb9b 573f
00000160: 5d60 583f 446c 0c3f 7ea5 043f 1586 473f
00000170: 036c 433f a230 2e3f 86e7 e73e ded5 4c3f
00000180: acf1 4d3f 164c 3f3f 18d9 4c3f 6e2c 463f
00000190: 3796 553f e842 5f3f 1139 273f 7d34 403f
000001a0: 2c54 553f f440 173f 9fe7 1f3f 6d20 323f
000001b0: e717 5c3f 4471 183f d832 583f 4c9e 543f
000001c0: 6bbc 463f 1c05 4e3f 6a96 143f 28a0 4e3f
000001d0: d49a 513f dd5a 5c3f f71d 093f 2bf2 553f
000001e0: eed2 033f c658 723f e79e 593f 7934 483f
000001f0: 4205 5a3f 4eac df3e d897 113f e488 0c3f

fc4.weight f4 [4, 128]
-2.4903939 -2.4526017 -2.4474936 -2.3254836 -2.546455 2.5555902 -2.361803 2.4737191
-2.4144032 -2.5241494 -2.2343965 -2.380812 -2.5747042 2.3619602 1.8563126 1.8063272
-2.5812838 2.4882877 2.4664824 -2.58512 -2.3875096 -2.3966615 2.2352977 -2.3501713
2.380635 -2.5540361 2.3643982 -2.43861 2.2468858 2.412761 2.3699 -2.4274344
-2.437319 -2.5700045 2.381597 2.3814652 -2.5570817 2.2863057 -2.5545764 -2.4579668
-2.4134498 -2.527692 -2.5430868 2.3356779 -2.43658 -2.3931031 -2.401281 -2.521358
-2.3714876 -2.489466 -2.5839353 -2.555173 -2.3878968 2.4888802 -2.2771866 -2.251052
2.348762 2.2050054 2.5127122 2.4119515 2.3952198 -2.522144 -2.567033 -2.415112
2.5608044 2.3922853 2.017846 2.514566 -2.4900458 2.532367 2.4061642 -2.4547966
-2.3018038 2.3318484 -2.2470918 2.3857229 2.0574238 -2.4807324 -2.5487363 -2.4113512
-2.5807023 -2.4397702 2.1625028 -2.5305357 2.3640358 2.4428055 -2.54581 -2.522847
-2.568519 2.2449672 2.0663245 -2.5769897 -2.4394913 2.5520983 2.5228696 -2.5276806
-2.2281733 -2.2491097 -2.594033 -2.3401875 -2.529992 -2.5323057 2.4764252 -2.345789
-2.3443964 2.499709 2.4802332 -2.2521198 -2.2793431 2.5228097 -2.3567095 -2.4173403
-2.520665 -2.5519047 2.301909 -2.3688784 -2.4587126 -2.393167 2.0813894 -2.5715618
2.1701121 -2.5090444 -2.570432 -2.2901397 -2.433669 2.0879169 2.4233842 2.4876878
-2.4683845 -2.3920488 -2.4094582 -2.478535 -2.4439292 2.432561 -2.4444656 2.4236526
-2.3936107 -2.4864955 -2.4819393 -2.458725 -2.4187984 2.4308977 2.506104 2.4982288
-2.4188893 2.4629986 2.4544988 -2.4728842 -2.4769046 -2.4603496 2.4583948 -2.438482
2.4536874 -2.443716 2.3723807 -2.4267173 2.4520772 2.471884 2.4242477 -2.4619122
-2.3972175 -2.4341128 2.466066 2.43524 -2.437 2.4624956 -2.4437993 -2.4737735
-2.462379 -2.4258683 -2.500792 2.4519885 -2.4639313 -2.4402795 -2.466027 -2.4276397
-2.4702656 -2.4916868 -2.4677835 -2.493432 -2.4793642 2.405977 -2.4606972 -2.407137
2.4263747 2.4557266 2.21121 2.458889 2.4209368 -2.4523377 -2.4939733 -2.4061584
2.471304 2.4318023 2.444585 2.1926372 -2.4592123 2.3673043 2.4472754 -2.4763646
-2.4154186 2.4053557 -2.449021 2.4051735 2.5151098 -2.442092 -2.393757 -2.4736414
-2.4770913 -2.4052508 2.4712062 -2.4906466 2.4430137 2.4399538 -2.4505455 -2.4778605
-2.51395 2.43098 2.514664 -2.4640827 -2.468913 2.4262886 2.1464975 -2.4625733
-2.4160912 -2.4419127 -2.4530313 -2.5003335 -2.4552739 -2.4555678 2.4603763 -2.380806
-2.4387505 2.4292316 2.4531417 -2.4373047 -2.4425576 2.461673 -2.4408143 -2.4186964
-2.4846509 -2.4891577 2.4698415 -2.478937 -2.4716449 -2.4193242 2.517221 -2.4972563
2.437581 -2.3275838 -2.4398954 -2.4873989 -2.4262486 2.506605 2.4458327 2.4725208
00000000: 9d62 1fc0 6df7 1cc0 bca3 1cc0 b9d4 14c0
00000010: 1ef9 22c0 ca8e 2340 c827 17c0 6a51 1e40
00000020: 9585 1ac0 aa8b 21c0 5a00 0fc0 395f 18c0
00000030: f4c7 24c0 5b2a 1740 a79b ed3f bb35 e73f
00000040: c133 25c0 1b40 1f40 d9da 1d40 9b72 25c0
00000050: f5cc 18c0 e762 19c0 1e0f 0f40 3569 16c0
00000060: 535c 1840 5475 23c0 4d52 1740 3012 1cc0
00000070: facc 0f40 ad6a 1a40 71ac 1740 165b 1bc0
00000080: 09fd 1bc0 f47a 24c0 166c 1840 ed69 1840
00000090: 3aa7 23c0 d552 1240 2e7e 23c0 544f 1dc0
000000a0: f675 1ac0 b5c5 21c0 efc1 22c0 bf7b 1540
000000b0: edf0 1bc0 9a28 19c0 97ae 19c0 ee5d 21c0
000000c0: 74c6 17c0 6953 1fc0 325f 25c0 f487 23c0
000000d0: 4dd3 18c0 d049 1f40 6dbd 11c0 3c11 10c0
000000e0: 1e52 1640 cf1e 0d40 47d0 2040 6a5d 1a40
000000f0: 484b 1940 cf6a 21c0 454a 24c0 3291 1ac0
00000100: 38e4 2340 341b 1940 6424 0140 a6ee 2040
00000110: e95c 1fc0 4d12 2240 98fe 1940 631b 1dc0
00000120: c150 13c0 013d 1540 5ad0 0fc0 afaf 1840
00000130: d5ac 0340 52c4 1ec0 7f1e 23c0 9453 1ac0
00000140: 3a2a 25c0 3225 1cc0 7266 0a40 4cf4 21c0
00000150: 5d4c 1740 ed56 1c40 8dee 22c0 5376 21c0
00000160: 9e62 24c0 8bad 0f40 a93e 0440 66ed 24c0
00000170: a020 1cc0 9455 2340 b276 2140 85c5 21c0
00000180: 649a 0ec0 6af1 0fc0 a304 26c0 a2c5 15c0
00000190: 64eb 21c0 4c11 22c0 c07d 1e40 6821 16c0
000001a0: 970a 16c0 3bfb 1f40 24bc 1e40 bb22 10c0
000001b0: c2e0 11c0 b775 2140 54d4 16c0 b4b5 1ac0
000001c0: 9352 21c0 6852 23c0 7a52 1340 b49b 17c0
000001d0: 8c5b 1dc0 a629 19c0 7c35 0540 7894 24c0
000001e0: 1ee3 0a40 2f94 20c0 f581 24c0 a691 12c0
000001f0: 3cc1 1bc0 6ea0 0540 ba18 1b40 4736 1f40
00000200: 03fa 1dc0 5417 19c0 9034 1ac0 51a0 1ec0
00000210: 5669 1cc0 14af 1b40 2072 1cc0 201d 1b40
00000220: eb30 19c0 be22 1fc0 18d8 1ec0 c05b 1dc0
00000230: 98cd 1ac0 d493 1b40 0264 2040 fbe2 1f40
00000240: 15cf 1ac0 c5a1 1d40 8216 1d40 bc43 1ec0
00000250: 9b85 1ec0 5e76 1dc0 5756 1d40 1710 1cc0
00000260: 3709 1d40 d865 1cc0 16d5 1740 564f 1bc0
00000270: d5ee 1c40 5933 1e40 e026 1b40 f88f 1dc0
00000280: 036c 19c0 81c8 1bc0 06d4 1d40 f9da 1b40
00000290: cff7 1bc0 8799 1d40 3567 1cc0 4e52 1ec0
000002a0: 9e97 1dc0 6d41 1bc0 fa0c 20c0 61ed 1c40
000002b0: 0db1 1dc0 8a2d 1cc0 63d3 1dc0 735e 1bc0
000002c0: d518 1ec0 cc77 1fc0 2af0 1dc0 6494 1fc0
000002d0: e7ad 1ec0 87fb 1940 107c 1dc0 880e 1ac0
000002e0: b949 1b40 a02a 1d40 7784 0d40 705e 1d40
000002f0: a1f0 1a40 1af3 1cc0 429d 1fc0 80fe 19c0
00000300: d829 1e40 a6a2 1b40 1574 1c40 2b54 0c40
00000310: bc63 1dc0 ea81 1740 29a0 1c40 c27c 1ec0
00000320: 3896 1ac0 59f1 1940 c3bc 1cc0 5dee 1940
00000330: 8ff7 2040 3c4b 1cc0 5133 19c0 2450 1ec0
00000340: aa88 1ec0 a1ef 19c0 3e28 1e40 c166 1fc0
00000350: 565a 1c40 3428 1c40 bdd5 1cc0 4495 1ec0
00000360: 8fe4 20c0 2d95 1b40 41f0 2040 88b3 1dc0
00000370: ac02 1ec0 5048 1b40 3760 0940 cd9a 1dc0
00000380: 3da1 1ac0 4c48 1cc0 77fe 1cc0 7705 20c0
00000390: 3523 1dc0 0628 1dc0 ce76 1d40 205f 18c0
000003a0: 7d14 1cc0 8878 1b40 4600 1d40 cdfc 1bc0
000003b0: dd52 1cc0 0d8c 1d40 4d36 1cc0 eccb 1ac0
000003c0: 8504 1fc0 5c4e 1fc0 e211 1e40 e7a6 1ec0
000003d0: 6e2f 1ec0 35d6 1ac0 261a 2140 0cd3 1fc0
000003e0: 5401 1c40 22f7 14c0 3f27 1cc0 8b31 1fc0
000003f0: a847 1bc0 376c 2040 8688 1c40 c83d 1e40

fc4.bias f4 [4]
1.7147557 1.7444578 1.7952658 1.8623484
00000000: 1d7d db3f 654a df3f 45cb e53f 6f61 ee3f

batchnorm1.weight f4 [128]
0.69993633 0.886329 1.0 0.99914855 0.8983212 1.0 0.7198153 0.8381614
0.8018482 0.5978766 0.79993975 0.991755 1.1808796 0.98782516 0.84526896 0.6274656
1.1403602 1.0 1.0977604 0.8600597 0.8189424 1.1871685 0.86526823 1.0
1.0 1.4496776 1.0 0.8678998 1.0 1.0 1.0 1.0
1.0 1.0 0.47630787 0.74467313 0.8308974 0.942116 1.0 0.77345103
1.0 1.0 0.8437584 1.0820826 0.78742236 0.6214871 0.7194011 0.95763814
1.0068837 0.92839986 0.9802266 0.7919848 0.79505926 0.5919043 0.73069715 0.93064654
0.54860055 1.0 0.722422 0.7810153 0.9318741 1.0 0.7573597 0.7250572
0.8458447 0.8016566 1.0 1.0 1.0 0.9637903 0.660164 1.0
1.049618 0.7982351 1.0 1.0 1.1722407 1.0 0.8718562 0.86524636
0.91829944 1.1382568 0.6317879 0.96969223 0.65425354 1.0 1.0 0.886876
0.88063765 0.8762065 1.0 0.79778105 1.0 1.0 1.0060049 0.6189383
1.0 1.1450771 0.90663886 1.0 0.59928364 0.9926519 0.962881 1.0
1.0 1.0 1.0 1.0 1.0602976 0.6566948 0.8615793 1.1432844
1.0 1.0 0.8212106 0.7038724 1.0 1.0 0.51996905 1.104556
1.1461089 0.6880961 1.0 0.5724028 0.991243 1.0332246 1.0 0.8674157
00000000: 072f 333f 75e6 623f 0000 803f 33c8 7f3f
00000010: 61f8 653f 0000 803f d145 383f bf91 563f
00000020: ec45 4d3f 710e 193f dac8 4c3f a8e3 7d3f
00000030: 1027 973f 1ce2 7c3f 8c63 583f 96a1 203f
00000040: 53f7 913f 0000 803f 6a83 8c3f df2c 5c3f
00000050: 36a6 513f 23f5 973f 3882 5d3f 0000 803f
00000060: 0000 803f 098f b93f 0000 803f ae2e 5e3f
00000070: 0000 803f 0000 803f 0000 803f 0000 803f
00000080: 0000 803f 0000 803f a0de f33e e6a2 3e3f
00000090: b1b5 543f 842e 713f 0000 803f e300 463f
000000a0: 0000 803f 0000 803f 8d00 583f af81 8a3f
000000b0: 8394 493f c719 1f3f ac2a 383f c627 753f
000000c0: 91e1 803f 9dab 6d3f 21f0 7a3f 84bf 4a3f
000000d0: 0189 4b3f 0a87 173f f80e 3b3f da3e 6e3f
000000e0: 1671 0c3f 0000 803f a6f0 383f 9ef0 473f
000000f0: 4d8f 6e3f 0000 803f 53e2 413f 599d 393f
00000100: 4789 583f 5e39 4d3f 0000 803f 0000 803f
00000110: 0000 803f f6ba 763f 8200 293f 0000 803f
00000120: e259 863f 2359 4c3f 0000 803f 0000 803f
00000130: fc0b 963f 0000 803f f831 5f3f c980 5d3f
00000140: ac15 6b3f 66b2 913f dabc 213f c03d 783f
00000150: 297d 273f 0000 803f 0000 803f 4e0a 633f
00000160: 7871 613f 124f 603f 0000 803f 613b 4c3f
00000170: 0000 803f 0000 803f c5c4 803f be72 1e3f
00000180: 0000 803f e391 923f 7c19 683f 0000 803f
00000190: a76a 193f 6f1e 7e3f 5f7f 763f 0000 803f
000001a0: 0000 803f 0000 803f 0000 803f 0000 803f
000001b0: d5b7 873f 271d 283f 7690 5c3f 2557 923f
000001c0: 0000 803f 0000 803f dc3a 523f fb30 343f
000001d0: 0000 803f 0000 803f b11c 053f 1762 8d3f
000001e0: b2b3 923f 1127 303f 0000 803f fd88 123f
000001f0: 1ac2 7d3f b440 843f 0000 803f f50e 5e3f

batchnorm1.bias f4 [128]
-0.2959045 -0.10010938 0.21408455 0.20076244 -0.048363928 0.2791894 -0.19948222 -0.1583623
-0.033049166 -0.15418367 -0.20175533 0.25168905 -0.03602335 0.1449898 0.058190484 0.08102457
-0.047454786 0.23509187 0.2648887 -0.20897266 -0.1589678 -0.00371268 0.09632395 0.2212662
0.24780172 0.0877059 0.2660991 0.0146220615 -0.18391758 0.26651716 -0.1696181 -0.24981381
-0.25741115 -0.19067796 -0.024568032 -0.15084718 -0.15298319 -0.010799253 -0.128721 -0.15855598
0.33309758 0.2693347 0.22978146 -0.026532294 -0.14291818 0.086547226 -0.24198312 -0.1392636
0.07778169 0.23256207 0.042782508 0.33165818 -0.11043372 -0.18685043 -0.02783021 0.15618771
-0.40161186 -0.24370097 -0.10058165 -0.033862084 0.044244602 -0.25566277 -0.23043439 -0.33675697
0.029678656 -0.060011204 0.26051468 0.20588358 0.1258561 0.04163489 -0.114522375 0.2091732
-0.09780225 -0.06884125 0.29684106 -0.26971623 -0.12224188 0.23734432 0.18621212 0.12882972
0.21994334 0.19350044 -0.058563307 0.09715199 -0.10815887 -0.25831357 0.21011838 0.29640254
-0.14500543 0.29429328 0.14787133 0.28163272 0.22945647 0.12268915 -0.27816132 -0.36294875
0.23344374 -0.009199497 0.18587461 0.21038727 -0.3396227 0.025353268 0.01769208 0.21702673
0.24396087 -0.20984706 0.27252275 -0.17914423 0.16091521 -0.02754367 -0.06593132 0.022739433
-0.29745975 0.28058347 -0.21662962 -0.3815818 0.21096452 0.27930686 0.16549948 -0.052159123
0.14942896 -0.10310941 -0.20055793 -0.1763258 -0.05883628 -0.031347588 0.26529524 -0.070330776
00000000: cb80 97be 2606 cdbd fb38 5b3e ab94 4d3e
00000010: 4119 46bd eaf1 8e3e 1145 4cbe ba29 22be
00000020: 905e 07bd 53e2 1dbe f398 4ebe 63dd 803e
00000030: 388d 13bd 3578 143e 2559 6e3d 36f0 a53d
00000040: f35f 42bd ecbb 703e 7e9f 873e eefc 55be
00000050: 74c8 22be 6f50 73bb 7e45 c53d 9b93 623e
00000060: bcbf 7d3e 279f b33d 243e 883e 5f91 6f3c
00000070: e454 3cbe f074 883e 5eb0 2dbe 31cf 7fbe
00000080: 65cb 83be 1541 43be e642 c9bc af77 1abe
00000090: a0a7 1cbe 5aef 30bc 70cf 03be 805c 22be
000000a0: c48b aa3e 3de6 893e d54b 6b3e 415a d9bc
000000b0: 2559 12be ac3f b13d 6cca 77be 1e9b 0ebe
000000c0: 024c 9f3d c024 6e3e b63c 2f3d 1acf a93e
000000d0: 132b e2bd b855 3fbe 2efc e3bc acef 1f3e
000000e0: 12a0 cdbe bf8c 79be c1fd cdbd f8b2 0abd
000000f0: d439 353d 3be6 82be fef6 6bbe 696b acbe
00000100: a720 f33c 4fce 75bd 2e62 853e 25d3 523e
00000110: 6ce0 003e 5989 2a3d b58a eabd 8031 563e
00000120: 8c4c c8bd a4fc 8cbd 8dfb 973e 3f18 8abe
00000130: f359 fabd 640a 733e 64ae 3e3e f0eb 033e
00000140: d438 613e fb24 463e 14e0 6fbd 9ff7 c63d
00000150: 6682 ddbd ad41 84be 4629 573e 13c2 973e
00000160: 4e7c 14be 9cad 963e 956b 173e 2a32 903e
00000170: a3f6 6a3e 7344 fb3d 296b 8ebe 6bd4 b9be
00000180: e00b 6f3e 7db9 16bc ea55 3e3e c36f 573e
00000190: 07e3 adbe a8b1 cf3c fbee 903c 413c 5e3e
000001a0: e1d0 793e 26e2 56be 1a88 8b3e 9671 37be
000001b0: f5c6 243e 43a3 e1bc 0007 87bd 0c48 ba3c
000001c0: a54c 98be a3a8 8f3e 28d4 5dbe b15e c3be
000001d0: 1507 583e 4f01 8f3e b278 293e cea4 55bd
000001e0: e803 193e 072b d3bd 0f5f 4dbe c08e 34be
000001f0: 50fe 70bd 5466 00bd c7d4 873e 9509 90bd

batchnorm1.running_mean f4 [128]
3.427907e-10 6e-45 0.0 1544.7214 6e-45 0.0 4.797742e-20 3.961322e-17
6.3344054e-19 109184.625 9.713949e-22 6e-45 6e-45 6.42445e-40 6378.262 60729.81
6e-45 0.0 2901.9033 0.012599943 1.8416994e-25 6e-45 3717.032 0.0
0.0 501.70538 0.0 1.4790597e-22 0.0 0.0 0.0 0.0
0.0 0.0 68437.96 6.421894e-39 6e-45 6e-45 0.0 5.790667e-34
0.0 0.0 11283.76 1.0332966e-35 1.039604e-35 95145.2 46514.63 6e-45
6e-45 925.4018 2.1e-44 62485.418 3.84e-43 105527.484 1.2146e-41 1212.2797
47279.82 0.0 32245.902 289.2731 6e-45 0.0 3.5890794e-06 0.1692784
54162.938 6e-45 0.0 0.0 0.0 6e-45 84902.875 0.0
6e-45 6e-45 0.0 0.0 6e-45 0.0 4786.75 4.7017323e-25
4593.987 3180.1943 53295.574 6e-45 76917.6 0.0 0.0 1259.3927
6e-45 14124.845 0.0 4189.485 0.0 0.0 6e-45 21337.098
0.0 6e-45 1.817478e-36 0.0 147933.52 6e-45 13.741275 0.0
0.0 0.0 0.0 0.0 0.07839354 94613.95 6e-45 6e-45
0.0 0.0 5.494667e-29 33.96773 0.0 0.0 84890.2 6e-45
4656.896 1.965877e-38 0.0 53065.67 6e-45 6e-45 0.0 1.6243417e-32
00000000: 8173 bc2f 0400 0000 0000 0000 1617 c144
00000010: 0400 0000 0000 0000 2491 621f 09af 3624
00000020: 6af5 3a21 5040 d547 05cb 921c 0400 0000
00000030: 0400 0000 e0fe 0600 1952 c745 cf39 6d47
00000040: 0400 0000 0000 0000 745e 3545 fe6f 4e3c
00000050: c9fd 6316 0400 0000 8350 6845 0000 0000
00000060: 0000 0000 4ada fa43 0000 0000 aece 321b
00000070: 0000 0000 0000 0000 0000 0000 0000 0000
00000080: 0000 0000 0000 0000 fbaa 8547 a1ed 4500
00000090: 0400 0000 0400 0000 0000 0000 8c6d 4008
000000a0: 0000 0000 0000 0000 0a4f 3046 05c2 5b05
000000b0: 6d19 5d05 9ad4 b947 a1b2 3547 0400 0000
000000c0: 0400 0000 b759 6744 0f00 0000 6b15 7447
000000d0: 1201 0000 be1b ce47 dc21 0000 f388 9744
000000e0: d2af 3847 0000 0000 ceeb fb46 f5a2 9043
000000f0: 0400 0000 0000 0000 eadb 7036 5157 2d3e
00000100: f092 5347 0400 0000 0000 0000 0000 0000
00000110: 0000 0000 0400 0000 70d3 a547 0000 0000
00000120: 0400 0000 0400 0000 0000 0000 0000 0000
00000130: 0400 0000 0000 0000 0096 9545 f682 1117
00000140: e58f 8f45 1cc3 4645 932f 5047 0400 0000
00000150: cd3a 9647 0000 0000 0000 0000 916c 9d44
00000160: 0400 0000 61b3 5c46 0000 0000 e1eb 8245
00000170: 0000 0000 0000 0000 0400 0000 32b2 a646
00000180: 0000 0000 0400 0000 2a9d 1a04 0000 0000
00000190: 6177 1048 0400 0000 43dc 5b41 0000 0000
000001a0: 0000 0000 0000 0000 0000 0000 0000 0000
000001b0: cb8c a03d faca b847 0400 0000 0400 0000
000001c0: 0000 0000 0000 0000 6e4e 8b10 f5de 0742
000001d0: 0000 0000 0000 0000 1acd a547 0400 0000
000001e0: 2b87 9145 a710 d600 0000 0000 ac49 4f47
000001f0: 0400 0000 0400 0000 0000 0000 69ae a80a

batchnorm1.running_var f4 [128]
1.3168703e-06 6e-45 6e-45 5.6206284e+07 6e-45 6e-45 1.3696909e-16 1.5249451e-13
5.5746806e-16 1.2795738e+09 4.014728e-18 6e-45 6e-45 3.6698548e-36 3.6920864e+08 1.2573245e+09
6e-45 6e-45 9.556121e+07 10.6097765 1.2619465e-22 6e-45 1.3548088e+08 6e-45
6e-45 225216.62 6e-45 6.881241e-20 6e-45 6e-45 6e-45 6e-45
6e-45 6e-45 4.6582698e+08 1.5063949e-35 2.2672e-41 6e-45 6e-45 2.1762132e-30
6e-45 6e-45 1.7039034e+08 1.4737308e-32 4.5013064e-32 1.1378506e+09 2.7611264e+08 6e-45
6e-45 2.359259e+07 6.2738e-41 9.912241e+08 1.65823e-39 1.362942e+09 4.074172e-38 2.546172e+07
4.8842752e+08 6e-45 4.7500877e+08 1.2558816e+06 6e-45 6e-45 0.014298705 845.72437
4.2863613e+08 6e-45 6e-45 6e-45 6e-45 6e-45 8.827555e+08 6e-45
6e-45 6e-45 6e-45 6e-45 6e-45 6e-45 2.7059392e+08 8.678055e-22
2.1565198e+08 9.028668e+07 1.4426043e+09 6e-45 6.314611e+08 6e-45 6e-45 3.2109784e+07
6e-45 1.01871245e+09 6e-45 2.0100418e+08 6e-45 6e-45 6e-45 2.0917915e+08
6e-45 6e-45 1.8324985e-33 6e-45 2.3045478e+09 6e-45 105408.52 6e-45
6e-45 6e-45 6e-45 6e-45 14.114504 1.05307206e+09 1.752e-42 6e-45
6e-45 6e-45 3.42814e-25 141509.94 6e-45 6e-45 7.1977683e+08 6e-45
2.3316574e+08 5.1933117e-35 6e-45 2.8522086e+08 6e-45 6e-45 6e-45 7.415969e-29
00000000: 52bf b035 0400 0000 0400 0000 f368 564c
00000010: 0400 0000 0400 0000 24ea 1d25 8db1 2b2a
00000020: e2ad 2026 7e89 984e 091e 9422 0400 0000
00000030: 0400 0000 2e19 9c04 6a0d b04d 80e2 954e
00000040: 0400 0000 0400 0000 bf44 b64c a5c1 2941
00000050: 5a8f 181b 0400 0000 6334 014d 0400 0000
00000060: 0400 0000 28f0 5b48 0400 0000 8d7a a21f
00000070: 0400 0000 0400 0000 0400 0000 0400 0000
00000080: 0400 0000 0400 0000 a51f de4d f82f a005
00000090: 333f 0000 0400 0000 0400 0000 2e8e 300e
000000a0: 0400 0000 0400 0000 347f 224d 7c0a 990a
000000b0: a0b8 690b 72a4 874e 28a9 834d 0400 0000
000000c0: 0400 0000 47ff b34b e3ae 0000 8553 6c4e
000000d0: 780e 1200 b079 a24e abd1 5d01 ec41 c24b
000000e0: 80e6 e84d 0400 0000 7880 e24d 4d4e 9949
000000f0: 0400 0000 0400 0000 1e45 6a3c 5c6e 5344
00000100: bf63 cc4d 0400 0000 0400 0000 0400 0000
00000110: 0400 0000 0400 0000 1f77 524e 0400 0000
00000120: 0400 0000 0400 0000 0400 0000 0400 0000
00000130: 0400 0000 0400 0000 7c07 814d 9923 831c
00000140: 69a9 4d4d 4b35 ac4c caf8 ab4e 0400 0000
00000150: 548d 164e 0400 0000 0400 0000 6cfa f44b
00000160: 0400 0000 46e1 724e 0400 0000 49b1 3f4d
00000170: 0400 0000 0400 0000 0400 0000 217d 474d
00000180: 0400 0000 0400 0000 ef3c 1809 0400 0000
00000190: 9c5c 094f 0400 0000 43e0 cd47 0400 0000
000001a0: 0400 0000 0400 0000 0400 0000 0400 0000
000001b0: 02d5 6141 6b12 7b4e e204 0000 0400 0000
000001c0: 0400 0000 0400 0000 0c31 d416 7c31 0a48
000001d0: 0400 0000 0400 0000 b19b 2b4e 0400 0000
000001e0: 3b5d 5e4d d90f 8a06 0400 0000 0001 884d
000001f0: 0400 0000 0400 0000 0400 0000 6404 bc10
