src/dqn_agent_200.pth (torch, 272520 bytes, 8 tensors)

fc1.weight f4 [128, 6]
00000000: 5313 e43e 0682 c93d 8c53 8040 b4ee aec1
00000010: 499e f43e 0104 50c0 7d43 8c3f 4dab 62be
00000020: 6019 9440 51ac aec1 46fd c53d 3cdc 6dc1
00000030: addd 9f3f b9a4 b1be 5072 9940 24bc b2c1
00000040: 5889 97be 0136 73c1 6b95 a93f df92 87bf
00000050: 546c 9a40 8842 b1c1 8d1e a5bf e0ae 7cc1
00000060: 9fd0 a13f fdca 94be f5b7 9c40 7ea8 b2c1
00000070: 5423 12bc 4ac9 79c1 b403 cabe 17ec f83c
00000080: 9405 56be 68b3 a4be b353 66be 6b9d bb3e
00000090: 22bc a33f a00b 09bf 890c 8e40 0785 b2c1
000000a0: 84c2 033e 4844 6ec1 b073 f9be 182d 603f
000000b0: 84f0 7940 9b2a 0041 e812 ad3d 31d4 0341
000000c0: ea75 fdbe 2296 6c3f f592 0642 6f32 1741
000000d0: 7d15 963f 0402 d040 8446 d1be e26c 173f
000000e0: e93e 0842 2ff5 1d41 30c8 833f a9db d140
000000f0: e0f4 6cbe 1462 7c3e 5534 993e dcaf 6b3e
00000100: e6a4 e7bd fe81 a53e d3c9 57be 044a 54b9
00000110: 13af 8dbd 5b9b 1a3e eefb 0cbe aa41 32be
00000120: 9b12 ac3f e069 5cbe 97bc a040 529f afc1
00000130: e55f 333e f7e9 70c1 de58 bebe 6954 6b3e
00000140: 19c7 b2be 502d 73be e6b7 b3bd 6ee1 493e
00000150: 1d66 8c3f 8f57 bdbe 5e42 9840 9286 afc1
00000160: 0469 8e3e 09b3 78c1 b24c b53f 91c1 93bf
00000170: 89cc 9440 2fd6 b4c1 a21a 10bf 5033 7dc1
00000180: ff4f 883f 5bb4 e4bf 9ceb 8b40 1e79 b1c1
00000190: 8334 a6bf e498 78c1 4260 a43f 7665 53be
000001a0: bc42 9940 b8d1 afc1 8187 963d ec39 79c1
000001b0: d421 e0be d113 573f e883 0842 6d9e 2041
000001c0: 80de 873f b681 e840 7c95 b33f 3c2a c1be
000001d0: 49ca 9f40 dcd9 b1c1 d113 363e 1788 7ac1
000001e0: 32dd ffbe 6fb3 583e b3b8 8c40 6cbe f040
000001f0: fc94 613e 9817 0441 a5c7 9a3f 81c8 cbbf
00000200: 11c6 8940 514a b2c1 6da0 9cbf e14f 78c1
00000210: d5f9 c1be 9df6 2b3f b76e 0642 ec29 1d41
00000220: 6f28 783f 1c73 e240 af64 a5bd f3f2 aabe
00000230: 73ed bfbe 8c03 893e 82be a1bd 2c55 94be
00000240: f9c0 963f 9b00 eabf 03ba 9640 2ce0 b6c1
00000250: 7d69 b4bf 1f6f 7cc1 27e6 ad3f 57d8 1bbe
00000260: 0e70 8e40 d6bd b1c1 9179 543e 9b1f 77c1
00000270: 767f a83f 882c 6abe db9d 8e40 eae0 b2c1
00000280: 3427 11bc 1e0b 73c1 f61b 86be c846 4d3e
00000290: 6be9 9c3e 8623 953e 18c9 9ebe eb23 553e
000002a0: 8813 8b3f 99ce 98bf e13f 8640 1cf5 b5c1
000002b0: 16c2 abbf 81ea 75c1 9bf7 ad3f 00a4 d0be
000002c0: 0991 9740 a3c8 afc1 6fc1 a83e 20e8 74c1
000002d0: 84bf 983f 68f6 bc3a b6c4 9940 0795 adc1
000002e0: b051 253e bec7 72c1 11da 3c3f 1cf1 573e
000002f0: 0a37 7b40 cfdc b0c1 6de1 a93e fba6 76c1
00000300: 69c7 99be 5cb2 ae3e ddf1 5bbe 8bc7 b4be
00000310: 3a55 23be 252c 7e3d efbd 973f 3229 8bbe
00000320: 7c94 9140 d1a6 aec1 71fc 493d 6544 74c1
00000330: 798e b7be edbc 4abe a6d0 cf3e 8b6e 05bd
00000340: 6745 9bbe 47da 95be f438 9b3f 77f9 c8bf
00000350: da77 9640 aa7a b1c1 f877 8bbf c6f0 75c1
00000360: 0308 00bf 8692 8a3f 199a 0442 ed99 1341
00000370: 879d 903f b01c ae40 0a34 b23f 3f6f b6be
00000380: 5d79 9a40 e4eb b3c1 d496 f13d bc45 7cc1
00000390: 8f53 9e3f af34 99be b465 9b40 4cc3 b1c1
000003a0: e41c a53e 339b 6dc1 bdb4 aa3f bfca b2bf
000003b0: b7b2 8f40 da98 b7c1 16c7 a7bf 2b1e 7dc1
000003c0: 27ce 07bf 2621 a03f 897d 0742 a118 1d41
000003d0: 246e 9c3f 9439 e940 4903 b03f b036 8dbf
000003e0: 8f60 9b40 ac61 b7c1 695b babf ad79 80c1
000003f0: 175b 923f 84cd b2bf 5015 9e40 aee9 b1c1
0.44545993 0.09839253 4.0101986 -21.866554 0.47777012 -3.2502444 1.0958096 -0.22135659
4.6280975 -21.834139 0.09667449 -14.866268 1.2489525 -0.34695986 4.795204 -22.341866
-0.29596972 -15.200685 1.3248724 -1.0591697 4.8257236 -22.157486 -1.2899948 -15.792694
1.2641791 -0.29061118 4.8974557 -22.332272 -0.008919556 -15.611643 -0.3945595 0.030386014
-0.20900565 -0.32168126 -0.22492866 0.36643538 1.2791789 -0.53533363 4.43903 -22.314955
0.1286717 -14.89167 -0.48721075 0.8756881 3.905305 8.010402 0.08450872 8.239305
-0.49504024 0.92416584 33.643513 9.449813 1.1725308 6.500246 -0.40874112 0.59150517
34.061436 9.872359 1.0295467 6.558064 -0.23140287 0.24646789 0.2992274 0.23016304
-0.11310749 0.3232574 -0.21073084 -0.00020245468 -0.069181584 0.15098326 -0.13767979 -0.17407861
1.3443178 -0.21524763 5.023021 -21.952793 0.1751705 -15.05712 -0.37177175 0.22981419
-0.34917524 -0.23747754 -0.0877531 0.19714901 1.0968663 -0.36980864 4.7581015 -21.940708
0.27814496 -15.54371 1.416403 -1.1543447 4.6499677 -22.604582 -0.5629064 -15.825027
1.0649413 -1.786754 4.372511 -22.18414 -1.2984775 -15.537327 1.2841876 -0.20644173
4.7893963 -21.977402 0.07350064 -15.576641 -0.4377581 0.8401461 34.128815 10.038678
1.0614777 7.265834 1.4029994 -0.37727535 4.993443 -22.231377 0.17780997 -15.658225
-0.49973446 0.21162198 4.3975463 7.523245 0.2202949 8.25576 1.2092177 -1.5920564
4.305428 -22.286287 -1.2236458 -15.519502 -0.3788592 0.67173177 33.60812 9.822735
0.96936697 7.0765514 -0.080758445 -0.3338848 -0.37485847 0.2676052 -0.078976646 -0.2897123
1.177764 -1.8281435 4.7102065 -22.859459 -1.4094692 -15.777129 1.3585862 -0.15219246
4.4511786 -22.217693 0.20749499 -15.445216 1.3163898 -0.2286855 4.4567695 -22.359821
-0.008859444 -15.190214 -0.26193208 0.20046532 0.30646834 0.29128665 -0.31012797 0.20814483
1.0865335 -1.1938049 4.1952977 -22.744682 -1.3418605 -15.369752 1.3591188 -0.40750122
4.7364545 -21.972967 0.32960078 -15.306671 1.1933446 0.0014416697 4.8052626 -21.697767
0.16144443 -15.173765 0.7377024 0.2108807 3.9252343 -22.107817 0.331798 -15.415767
-0.3003495 0.34120452 -0.21478982 -0.3530849 -0.1595048 0.06205382 1.1854838 -0.27179867
4.5493755 -21.831453 0.049313013 -15.266698 -0.35850886 -0.19798632 0.40588874 -0.032576125
-0.30326387 -0.29268095 1.2126756 -1.5701131 4.7021303 -22.184895 -1.0895987 -15.371283
-0.50012225 1.0825965 33.150486 9.22508 1.1298074 5.441002 1.3922131 -0.3563175
4.827315 -22.490181 0.11796346 -15.767025 1.236925 -0.29923007 4.856165 -22.22036
0.32248604 -14.85039 1.3336407 -1.3968123 4.490566 -22.949635 -1.3107631 -15.819865
-0.5304894 1.2510116 33.872593 9.818513 1.2221112 7.2882786 1.3751003 -1.1032314
4.855537 -22.922691 -1.4559146 -16.059412 1.1434048 -1.3968968 4.9401016 -22.239101

fc1.bias f4 [128]
00000000: 9a79 43c1 b2d9 41c1 62b3 3fc1 9191 47c1
00000010: 6db2 3cc1 9414 853e 2fba 40c1 552c 0241
00000020: 150e a141 8b20 a941 2dfa 4e3e db2c b93e
00000030: c7a8 40c1 ecfe eebd b53a 42c1 08d7 43c1
00000040: f466 3fc1 54b6 3dc1 a132 a541 3156 3ec1
00000050: b62b 0341 9ded 42c1 b5aa a841 38cd dc3d
00000060: dfda 46c1 162c 41c1 6ef1 3fc1 cffc db3d
00000070: cda1 49c1 f735 3dc1 2b74 3dc1 fbcc 3bc1
00000080: 5f94 81be 1984 38c1 ac80 333e 5849 3ec1
00000090: 1a0e 9a41 5cdd 3ec1 8e5f 39c1 18c4 44c1
000000a0: 2a85 a541 97d6 45c1 8c07 47c1 da41 3dc1
000000b0: 4190 2dbe 0222 3dc1 dbc9 a33d 7853 0f3e
000000c0: 63ef 42c1 4c89 49c1 3330 ab3e 9236 3ec1
000000d0: 6377 2ebe d91a 44c1 7da6 41c1 7549 a541
000000e0: 9449 36c1 8914 783d dcb2 43c1 9c70 42c1
000000f0: 96df 1c41 ecdf 3fc1 765a cd3e b5b8 bfbd
00000100: 2065 c2be 8801 38c1 7552 41c1 5eb4 a1be
00000110: d9be f9bc 5042 3fc1 910f 48c1 a5b7 d7bd
00000120: 5e40 37c1 6143 42c1 1741 40c1 3171 703e
00000130: 674a a141 88fc 88bc e647 41c1 ad34 64be
00000140: 29bb 3ac1 9dd8 80be 26db 43c1 9aba 3bc1
00000150: 2931 923e c19d 45c1 da57 4bc1 8b1c 3bc1
00000160: 78e2 3ac1 11f0 3dc1 63bd 45c1 4a3c 41c1
00000170: 748c 3a3e e4d7 a441 4dac 21be 566c 48c1
00000180: 3986 a441 4605 42c1 35e5 9a3d 3b2b 343e
00000190: 90cf 3cc1 5a40 3ec1 814d 38c1 af9c 48c1
000001a0: fc14 46c1 f25f 9dbe 87e1 4bc1 c0df 593d
000001b0: 2259 3bc1 85aa 42c1 c700 44c1 680f 9d41
000001c0: fc45 46c1 4413 3ec1 2e07 3ac1 95b6 a141
000001d0: 5f66 3cc1 d036 1541 7b99 46c1 bd4b 42c1
000001e0: 1835 40c1 2ba6 a341 22bd 853e d4ef a041
000001f0: 8d8e 3bc1 47c1 38c1 970a 40c1 b211 7bbd
-12.217188 -12.115648 -11.981295 -12.473039 -11.793561 0.25992262 -12.045455 8.135823
20.131876 21.14089 0.20212622 0.36167035 -12.041205 -0.11669716 -12.139333 -12.239998
-11.962635 -11.857014 20.649721 -11.896043 8.198172 -12.183011 21.083353 0.1078133
-12.428435 -12.073263 -11.996443 0.10741579 -12.602002 -11.825675 -11.840861 -11.737544
-0.2530851 -11.53225 0.17529553 -11.892906 19.256886 -11.929043 -11.585829 -12.297874
20.690022 -12.36489 -12.4393425 -11.828577 -0.1694956 -11.820803 0.07997485 0.13996685
-12.183444 -12.59602 0.3343521 -11.888323 -0.1703773 -12.256555 -12.103147 20.660868
-11.392963 0.06056646 -12.231167 -12.152493 9.804586 -11.992168 0.4010808 -0.09361402
-0.37967777 -11.500374 -12.082631 -0.31582922 -0.030486511 -11.95369 -12.5038 -0.10533074
-11.453215 -12.14145 -12.015891 0.23480679 20.16133 -0.016721979 -12.080053 -0.22285719
-11.670693 -0.25165263 -12.241003 -11.733057 0.2855313 -12.351014 -12.708948 -11.6944685
-11.68029 -11.87111 -12.358737 -12.077219 0.18217641 20.605415 -0.15788384 -12.526449
20.565538 -12.126287 0.07563249 0.17594616 -11.800674 -11.890711 -11.518922 -12.538253
-12.380123 -0.30737263 -12.74256 0.0531919 -11.709261 -12.166631 -12.25019 19.632523
-12.392086 -11.8797035 -11.626753 20.214151 -11.774993 9.325882 -12.412471 -12.143491
-12.012962 20.456137 0.2612086 20.117104 -11.722302 -11.547187 -12.002585 -0.061296172

fc2.weight f4 [256, 128]
00000000: 0232 13bd 9767 9bbd 1e66 c0bd 5647 67bb
00000010: acea bfbd 5748 8abd 219f 80bb 98a6 34bc
00000020: 2750 3eba 8582 a13c 37ff 9d3d 84ec 1e3d
00000030: 4098 98bd 0f03 b33d 0c54 823d de6c cd3c
00000040: e70a d13c 0ecb a83c 0e2e 7d3c 4cc8 78bb
00000050: 96b9 b63c 5e4a ddbc c673 de3a a4c5 75bd
00000060: 007c 863d ee00 c7bc a314 16bd 5f82 7dbd
00000070: 3855 2c3d 6128 113b 6873 a6bc 13fe 27bd
00000080: 47be 42bd 45f2 003d 98c1 023c ac1c 81bd
00000090: b642 863d 4451 aabd 6a8a 10bc 7907 86bd
000000a0: 9e19 74bd 8673 83bd 24d1 8bbd 03fe 90bd
000000b0: 2c8e 35bc eb27 113d bf01 763d fdf3 153d
000000c0: 91ba 6c3d 2210 76bd 04e9 02bd 010e 30bc
000000d0: 716f 9fbc f462 083d 70de a8bd 0a90 b2bd
000000e0: 5352 4ebc cf88 b33d 64c6 26bd 08c4 d5bc
000000f0: 0ba8 5a3d 29bf 683d f089 923d 05dd 8b3d
00000100: 08de a8bb fc7e 333d 088e 043d ea46 10bd
00000110: 7638 283d 5939 cabd fbab a03d 62e9 323d
00000120: 604c 483d a370 93bd b3c6 68bc 562c 7d3d
00000130: d3c5 50bd 4502 0e3d cf6c b1bd 2998 c63c
00000140: c7bd 7cbd 5d25 07bd 8ed6 88bd c6c9 1dbd
00000150: 70d5 30bd 5a2f 94bd b1c9 ccbb c5c1 133d
00000160: f26f 95bd cac6 3fbd 64f1 5b3d f02e a33c
00000170: 4674 e83c f5bb e6bd fad9 88bd 153a 113d
00000180: 1873 e53c e0d1 3dbd 8646 8dbc a471 75bc
00000190: b042 b23c 30b8 b5bc 71cf 03bd 367a fb3b
000001a0: 442c f3bc ea04 acbd 0457 c8bc e62c 9c3c
000001b0: 6356 90bd 3d47 7e3d c2d6 fdbc bb3d 1dbd
000001c0: 1bba 063c 0571 c5bd 2a4c 0d3c 21c5 a4bc
000001d0: 7220 e8bd 7770 aabc 994e 983b ca05 6d3c
000001e0: 5ea7 90bd f9c4 c9bc 0cc6 8ebd 22c3 b3bd
000001f0: d990 17bd 4012 84bb 7642 6a3d 0f0a b8bc
00000200: ce57 d840 6689 6040 c7fe 5940 2306 5640
00000210: e60b 5640 1080 2fbd 77ce 5740 2d4a 31c1
00000220: fe7f 1440 b225 1f40 71a5 dfbc ea7c dbbc
00000230: 8ec6 5540 b9c4 98bd e4df 6340 2755 5440
00000240: acd7 6940 88a4 5840 3458 1840 1d72 5040
00000250: b497 30c1 4af6 6340 0442 1d40 6668 0d3d
00000260: afdb 5c40 c56a 4f40 8400 5940 0271 6fbc
00000270: 4674 6140 cdb1 5640 7a50 5c40 064b 7b40
00000280: 02ab 0bbd 3542 5f40 e1c5 f03b a32b 5740
00000290: 7111 1740 2391 5240 6874 5940 21ec 5b40
000002a0: e686 0740 f306 5240 3325 6540 2430 5540
000002b0: 272d 64bd 8280 5840 ea13 a0bd 4283 20bd
000002c0: abad 5340 b305 6540 22f3 f4bc 42fe 4b40
000002d0: fb5d 783c 86f4 6d40 c524 ec40 a4b1 1940
000002e0: fa84 5f40 0544 1d3d 1442 5d40 42ab 5d40
000002f0: 24f8 3fc1 2450 6840 fedb a03d c925 b0bd
00000300: efba b03d f762 6740 3454 5740 25ed ecbc
00000310: fe6c 863d cafb 5340 973c 6440 ccfa 64bd
00000320: a8e3 6040 0216 6440 d3ad c240 9551 f4bc
00000330: d6ab 0240 ffc5 013b ed39 5c40 6c8d 8b3c
00000340: 3d8e 4d40 116b f33c d6b8 5e40 d647 5840
00000350: 99b8 a0bc ad73 5840 4712 5d40 49ad 8a40
00000360: 055d 5940 4936 4b40 808a 4d40 72fa df40
00000370: 0485 e1bc 4dc9 0740 9f8d aabd e944 5740
00000380: c98d 1740 71b1 5f40 df80 743d f708 f1b8
00000390: 6a1f e340 39ff 5d40 88b2 6940 0e43 5740
000003a0: 1901 5b40 d442 d13c a340 5040 2622 7bbb
000003b0: a009 5740 57ad 6840 2c43 6c40 ad58 2540
000003c0: 62f1 6540 7c54 5340 ae86 5540 0893 2640
000003d0: b9e8 6240 278e 39c1 fa92 5840 133b ad40
000003e0: 16dc 5a40 1d75 2040 6f39 3f3d 2205 2d40
000003f0: 968f a740 154b 5740 6405 6140 c17a 6b3d
-0.035936363 -0.075881176 -0.09394477 -0.0035290322 -0.09370932 -0.06752079 -0.0039252196 -0.011026047
-0.00072598684 0.019715557 0.07714694 0.038799778 -0.074509144 0.08740818 0.06363687 0.025076326
0.025517894 0.020604637 0.015452875 -0.0037961183 0.022305291 -0.027013 0.0016971759 -0.060002938
0.0656662 -0.024292435 -0.036640774 -0.06189191 0.04207346 0.0022149312 -0.020318702 -0.04101379
-0.047544744 0.031481046 0.007980727 -0.06304297 0.06555693 -0.083162814 -0.008822063 -0.06544394
-0.059594743 -0.06418519 -0.06827 -0.07079699 -0.01108126 0.03543846 0.06006026 0.03660964
0.05779511 -0.06007398 -0.031960502 -0.010745526 -0.01946232 0.033297494 -0.082455516 -0.087188795
-0.01259287 0.087663285 -0.040716544 -0.026094452 0.053382915 0.05682293 0.07155216 0.068292655
-0.0051534213 0.043822274 0.032362014 -0.03522388 0.04106947 -0.098742194 0.07845303 0.043679602
0.048900962 -0.07199218 -0.01420753 0.06180986 -0.05096991 0.034670133 -0.08663332 0.024242477
-0.061704423 -0.032994617 -0.06681548 -0.038522504 -0.0431723 -0.07235594 -0.0062496294 0.036073465
-0.072967425 -0.04682044 0.053697005 0.019919842 0.028375756 -0.11266319 -0.06682201 0.035455782
0.028008983 -0.04634273 -0.017245542 -0.014980707 0.021760315 -0.022182554 -0.032180253 0.007674481
-0.029684193 -0.08399375 -0.024455555 0.019064378 -0.07047727 0.062079657 -0.030986194 -0.03838895
0.008223082 -0.096406974 0.008624116 -0.02011353 -0.113343135 -0.02080558 0.0046480414 0.014466712
-0.07063173 -0.024630057 -0.06971368 -0.08777453 -0.037003372 -0.004030496 0.05719229 -0.022465734
6.7607183 3.5083861 3.4061754 3.3441246 3.3444762 -0.04284674 3.3719766 -11.080609
2.320312 2.4866757 -0.027300568 -0.026792962 3.3402438 -0.07459397 3.5605402 3.3176973
3.6537886 3.3850422 2.3803835 3.256965 -11.037037 3.5619073 2.4571543 0.03452339
3.4509084 3.2408917 3.3906565 -0.0146143455 3.5227218 3.354602 3.442412 3.926454
-0.034098633 3.488416 0.0073478078 3.3620384 2.3604395 3.2901084 3.3977299 3.4362872
2.1176085 3.2816741 3.5803955 3.3310633 -0.055707123 3.3828435 -0.07816298 -0.039187677
3.3074749 3.5784729 -0.029901091 3.1873937 0.015159125 3.7180495 7.3794885 2.4014673
3.4924912 0.038394947 3.457158 3.4635777 -11.998081 3.6298914 0.0785446 -0.08600957
0.08629405 3.6154153 3.3645144 -0.028921673 0.06563757 3.312243 3.566198 -0.05590324
3.513895 3.5638433 6.083719 -0.029824058 2.041738 0.0019801853 3.4410355 0.017035209
3.2118065 0.02971414 3.4800315 3.3793845 -0.019619273 3.3820603 3.4542406 4.333653
3.3963025 3.1751883 3.2115784 6.999322 -0.027529247 2.1216614 -0.08327793 3.363581
2.3680289 3.4952052 0.059693214 -0.00011493445 7.0975847 3.4687026 3.6515217 3.3634677
3.421942 0.025544561 3.253945 -0.0038319915 3.3599625 3.6355798 3.6915998 2.5835373
3.5928578 3.3020315 3.3363452 2.602724 3.5454543 -11.597205 3.3839707 5.413461
3.419683 2.507148 0.046685632 2.7034383 5.2362776 3.3639576 3.515954 0.057490114

fc2.bias f4 [256]
00000000: 66d8 933c 8e42 32c1 49fd 30c1 9c2b 32c1
00000010: d90a 30c1 ef14 32c1 a562 3641 a4a3 32c1
00000020: ea8e 32c1 9c26 33c1 8d75 30c1 1246 32c1
00000030: 24b4 30c1 3a3a 31c1 b24c 31c1 a7cd 30c1
00000040: 7e23 31c1 4bcd 30c1 b4bd 30c1 401d 36c1
00000050: 55d0 31c1 60e0 31c1 3f08 31c1 41e3 30c1
00000060: 3a32 34c1 0f2c 32c1 c555 31c1 57e1 32c1
00000070: 2d74 32c1 800c 31c1 2c1e 32c1 bee2 2fc1
00000080: a09a ec3c d55b 3641 c740 3441 cc11 31c1
00000090: ed6e 32c1 b8e7 31c1 1e34 32c1 7cc4 31c1
000000a0: 9863 31c1 a6e0 31c1 c297 32c1 3a58 31c1
000000b0: 60b1 33c1 e843 32c1 4ad4 32c1 a9a7 30c1
000000c0: cf71 5cbc 057a 31c1 31d5 31c1 9213 3641
000000d0: 27a3 cebd 3c66 32c1 2569 31c1 f9f0 36c1
000000e0: e574 32c1 cb49 31c1 1610 33c1 1b59 32c1
000000f0: ff9a 30c1 2bc1 2fc1 4eee 4c3d 37d5 32c1
00000100: c7fd 31c1 1b58 32c1 55d0 31c1 85cc 30c1
00000110: 572a 3641 02e9 623d 6db9 2fc1 0bf8 32c1
00000120: 267a 30c1 7307 32c1 ca75 33c1 51f5 31c1
00000130: f0e2 32c1 3d68 31c1 faf5 31c1 8680 32c1
00000140: 47b5 30c1 4850 30c1 cfd3 31c1 0196 31c1
00000150: 44aa 30c1 9fd5 30c1 6232 14bd cb6d 33c1
00000160: 7ac0 2fc1 9dd6 30c1 2caf 30c1 3914 31c1
00000170: 1399 32c1 d2a2 31c1 55ae 31c1 02e1 31c1
00000180: 74b5 30c1 c3d6 3541 d76a 31c1 9bbf 32c1
00000190: 9ed1 31c1 0acf 35c1 3165 32c1 07b9 30c1
000001a0: b589 30c1 a88d 30c1 481a 32c1 5c29 31c1
000001b0: da89 32c1 0f29 32c1 83b1 31c1 f207 613d
000001c0: adcc 30c1 87a4 31c1 6a06 31c1 73ab 31c1
000001d0: 33f9 31c1 30a4 31c1 7e7d a4bc 4041 32c1
000001e0: babb 31c1 2da4 33c1 06a2 30c1 a30f 32c1
000001f0: c2f5 3dbd 2ace 33c1 1aa3 8941 6564 3541
00000200: f53a 31c1 2b07 31c1 7aeb 32c1 4aaf 30c1
00000210: ce33 30c1 8cb0 31c1 d88d 31c1 fe61 33c1
00000220: f93f 32c1 42ab 32c1 49e0 30c1 3a16 31c1
00000230: e4ed 30c1 ad9e 33c1 3cfd 31c1 6910 79bd
00000240: 3cc4 31c1 747e 2fc1 5d01 33c1 6751 31c1
00000250: 61ed 30c1 d4ea 30c1 86a2 30c1 fc26 32c1
00000260: 3074 31c1 503e 31c1 93b0 32c1 5de8 31c1
00000270: 62ab e13b 720f 32c1 52f2 30c1 2b7f 32c1
00000280: 5859 32c1 7716 32c1 eabf 32c1 8447 31c1
00000290: 7508 33c1 ddde 32c1 1859 32c1 580b 3841
000002a0: 3b3e 31c1 bcee 31c1 3a53 32c1 d4de 31c1
000002b0: 3e85 30c1 9e9d 31c1 21f5 32c1 960e 32c1
000002c0: 895f 31c1 f785 33c1 f7e7 3541 e1b1 31c1
000002d0: a445 36c1 d01a 63c1 9325 32c1 001c 32c1
000002e0: 5c0a 3a41 af8f 32c1 159b 32c1 e2f9 32c1
000002f0: d31c 32c1 8ee9 32c1 04b5 2fc1 4d9f 30c1
00000300: cd15 32c1 f411 32c1 5414 33c1 ea4b 32c1
00000310: ba33 31c1 1e1c 31c1 e7d0 32c1 ac5a 32c1
00000320: 55e8 30c1 a873 31c1 f45b 33c1 fefb 3841
00000330: d8b7 31c1 3818 30c1 feca 30c1 e82a 31c1
00000340: 30e3 30c1 9131 bfbd 1955 31c1 935a 30c1
00000350: 5de9 31c1 dde2 31c1 5d1a 32c1 32d8 31c1
00000360: 5fc0 32c1 36ac 32c1 6a1b 32c1 4096 30c1
00000370: 83e0 31c1 1357 3641 c5eb 31c1 f074 35c1
00000380: b90c 32c1 2dbc 34bd 050a 30c1 f685 31c1
00000390: 2d2f 32c1 7a16 33c1 b62b 31c1 e88b 32c1
000003a0: 8b24 32c1 346b 32c1 b34a 31c1 08b2 30c1
000003b0: d82c 33c1 8427 31c1 481a 32c1 46cf 32c1
000003c0: f25b 31c1 4ed0 32c1 8cbf 30c1 72f8 32c1
000003d0: 26b4 32c1 3365 aebd 240a 33c1 ed81 32c1
000003e0: 245a 31c1 3bf6 2fc1 d6fb 32c1 973c c7bd
000003f0: 884a 31c1 1bab 32c1 9fab 30c1 f49f 32c1
0.018047523 -11.141249 -11.061837 -11.135647 -11.002648 -11.130111 11.399083 -11.164951
-11.159891 -11.196926 -11.028699 -11.142107 -11.04398 -11.076715 -11.081224 -11.050208
-11.071165 -11.05012 -11.046314 -11.382141 -11.113362 -11.117279 -11.064513 -11.055482
-11.262262 -11.1357565 -11.08344 -11.180015 -11.153363 -11.065552 -11.132366 -10.992857
0.028882325 11.39742 11.265815 -11.066845 -11.1520815 -11.119072 -11.137724 -11.11047
-11.086815 -11.117346 -11.16205 -11.08404 -11.230804 -11.141579 -11.176828 -11.040933
-0.013454868 -11.09229 -11.114549 11.379778 -0.100897126 -11.14996 -11.08817 -11.433831
-11.153539 -11.080516 -11.191427 -11.146754 -11.037841 -10.98466 0.050031953 -11.177054
-11.124457 -11.14651 -11.113362 -11.049932 11.385337 0.055397995 -10.98277 -11.185557
-11.029821 -11.126819 -11.216257 -11.122392 -11.180405 -11.087949 -11.122553 -11.156378
-11.044257 -11.0196 -11.114211 -11.099122 -11.041569 -11.052154 -0.03618086 -11.214305
-10.984491 -11.052396 -11.042767 -11.067437 -11.162372 -11.102251 -11.105062 -11.117434
-11.0443 11.364932 -11.088584 -11.171779 -11.113676 -11.363047 -11.149705 -11.045173
-11.03362 -11.034584 -11.131416 -11.0725975 -11.158655 -11.135024 -11.105838 0.054939218
-11.04997 -11.102668 -11.064066 -11.104358 -11.12334 -11.102585 -0.02007937 -11.14093
-11.108332 -11.227582 -11.0395565 -11.128818 -0.04637695 -11.237833 17.20464 11.33701
-11.076894 -11.06425 -11.182489 -11.042795 -11.012648 -11.105602 -11.09713 -11.211424
-11.140618 -11.166811 -11.054757 -11.067926 -11.058079 -11.226239 -11.124325 -0.060806666
-11.110409 -10.968372 -11.187833 -11.082374 -11.057954 -11.057331 -11.039679 -11.134518
-11.090866 -11.077713 -11.168109 -11.119229 0.0068868855 -11.128771 -11.05916 -11.156047
-11.146812 -11.130485 -11.171854 -11.07996 -11.189565 -11.17941 -11.146751 11.502769
-11.077693 -11.120785 -11.145319 -11.116901 -11.03253 -11.100981 -11.184846 -11.128561
-11.085824 -11.220206 11.369132 -11.105927 -11.392002 -14.194046 -11.134173 -11.131836
11.627529 -11.160079 -11.162862 -11.186007 -11.132037 -11.18202 -10.981693 -11.038892
-11.130322 -11.129383 -11.192463 -11.143534 -11.075129 -11.069365 -11.176002 -11.147137
-11.056722 -11.090736 -11.2099495 11.561522 -11.107384 -11.005913 -11.049559 -11.072975
-11.055466 -0.09335626 -11.083276 -11.022113 -11.119473 -11.117887 -11.131436 -11.115282
-11.171966 -11.167044 -11.131693 -11.036682 -11.117312 11.396258 -11.120061 -11.341049
-11.128106 -0.04412477 -11.002446 -11.095205 -11.136518 -11.192987 -11.073172 -11.159157
-11.133922 -11.151173 -11.080737 -11.043465 -11.198448 -11.072147 -11.131416 -11.175604
-11.084948 -11.175856 -11.046764 -11.185656 -11.168982 -0.08515396 -11.189976 -11.15672
-11.084507 -10.997615 -11.186483 -0.097283535 -11.080696 -11.166774 -11.0419 -11.164051

fc3.weight f4 [128, 256]
00000000: 807d 88bb 62c0 18bc 2d93 14bc 6b13 7fbc
00000010: 7257 6ebb 6126 3a3d 50b1 1fbd 0aa0 68bd
00000020: bb08 143d d041 2dbd 6721 13bd b7e4 403d
00000030: 30f8 86bd e3c8 ed3c d705 b43c 694b 233d
00000040: 39ea 46bd 5f1e 153b e5c9 203d 984c 5e3c
00000050: 06e3 2f3d 6a8e 3c3d 3b24 a33c 98be 133d
00000060: da11 c8bb 5c3f ac3b c735 4d3d 3af7 14bd
00000070: 1e38 c1bc c284 403c 49a2 3ebd 79df 393c
00000080: 86fa 4c3d f38e 60bd 10a5 973c 0331 3abd
00000090: 19f6 77bd 1b28 febc 7a72 95bc b47d 293d
000000a0: fe68 763c 03cb 5abd bad0 8c3c f579 e63c
000000b0: 61f6 a1bc 360a 56bd 466c 063d 906b 1abd
000000c0: 1865 55bc 145d 9c3c a246 4cbd 671b 7ebd
000000d0: a083 1c3d 92e0 fbbc 718f 8dbd fa08 a8bc
000000e0: 4fd3 85bd fbcf 57bb 6b52 6fbd b33f 4abd
000000f0: 5a2f 3e3d c3d5 003d 80eb 83ba 13a6 e7bb
00000100: c240 6dbd e0ba 923c c922 503c 6325 ffbb
00000110: 174d 993b 759d 57bd 65fe 6bbd 78e4 afbb
00000120: 6075 b4bc 6e08 e43c 6aa7 e83c 2050 1cbd
00000130: 029b 1bbd c72e 37bd 00ea 38b9 f7a9 1cbc
00000140: 1219 91bd cd35 be3b e088 44bd 9dca 76bd
00000150: 5a74 c9bc f5ae 2a3d 814b b63c 6b80 973b
00000160: 6303 53bd 2e81 683c 4bb8 cdbb 7bb9 143d
00000170: 6a37 babc cc5c debc e4a3 d5bc a766 1ebc
00000180: 2333 2e3d 46c4 0c3d e1cb 6cbd 28f5 513d
00000190: 3ca1 8ebc 6079 5ebd b101 8c3c 9c41 633b
000001a0: f5cd 143c 7cfc b83b 461f 21bd cc39 dfbc
000001b0: 600f 043d 4ccb 66bd 9edb 73bd 016a ac3c
000001c0: 7e29 ae3c 0e82 71bb 1539 b83b 7ebd ebbc
000001d0: 839c cc3c d6c7 4a3d 8618 753b ad85 9e3c
000001e0: 2b1a a63b 6acd b7bb f5f0 893c 64b5 8abc
000001f0: a0c1 b73c 372d 8dbd f452 fcbc 6e41 333d
00000200: d2fa 89bd 6ffb e4bc e897 3abd c9fd 1c3c
00000210: e73e b5ba 847c 913c 4f41 253d b2c7 233d
00000220: b716 fabc 2a6a 28bd 5738 ce3b cc09 71bd
00000230: 9146 48bd d1f7 2bbd 8fe9 003d 682d e23c
00000240: 6555 54bd 256b 39bd 3bd0 6ebd cb74 8bbc
00000250: 3324 5fbc 35f4 a63c e2d4 3d3d a173 0abd
00000260: 4329 a23c c8d5 113c 254e 1f3d da12 543d
00000270: 5568 47bc 45ca 37bd 04ec c83c 3890 333d
00000280: e5c6 81bd 5774 dfbc cc31 46bd 891e a03c
00000290: ff96 aebc 73ef 3ebd e7bc 7b3c ec15 01bc
000002a0: e653 73bd d929 193d 8e92 67bd 6765 c5ba
000002b0: a2b4 68bd 5a70 b6bc a002 673a cc3d df3c
000002c0: 24e2 4c3d fc4e 9c3b f00e efbc 9057 ecba
000002d0: 8f90 653b 5071 ce3b 03dd 693c c8b2 40bd
000002e0: 9b57 1abd 09a9 5abd 08ab 9fbc 90d8 89bd
000002f0: 1832 503c 5b52 573c 45e5 86bd 0075 23bd
00000300: fdbc 4fbc ab27 91bd 5977 ce3c 3847 62bc
00000310: a44d ae3c 180e 503d 126d 85bd 003d 6d3c
00000320: 915c 573c f7b7 88bb 6f36 87bd 290c f2bb
00000330: b34f ab3c 1f06 e63c 3aa1 72bd 25e3 3cbd
00000340: c224 10bd 1897 dbbc fcd5 233c 8495 91bc
00000350: a75f 4dbb d3a1 25bd 6847 43bb da65 903c
00000360: 70fe 1bbc dba8 193d c693 75bd 6862 e4bb
00000370: 0f96 8c3c 0837 89bd 36e9 0dbd 8cb3 88bd
00000380: 4cab 3d3d ae6c 4fbd 1773 273d ca67 1ebd
00000390: 1278 66bd b8e2 8e3c 079f 8dbd 0c6e f8bc
000003a0: 9c88 953c ea67 ad3b a08e e0bc 197f 2cbd
000003b0: c78f 7abd ca1a 11bc c535 60bd f044 73bd
000003c0: e3a1 c9bb 363d 993c b295 0fbd efac 263d
000003d0: 2b19 53bd 7407 fdbc d462 9a38 eb1f f2bc
000003e0: f74a bf3b eb56 5a3b 2a5f 8dbd dd04 08bd
000003f0: a116 1b3a 4536 e1bc ae87 88bd a4e2 66bd
-0.0041653514 -0.009323211 -0.009068293 -0.015568594 -0.003636804 0.045446757 -0.038987458 -0.05679325
0.03614114 -0.04229909 -0.035920527 0.04709312 -0.06590307 0.029026454 0.02197544 0.03986684
-0.048563216 0.0022753698 0.03925504 0.013568066 0.042941116 0.046034254 0.019914737 0.036070436
-0.0061056437 0.0052565765 0.050100114 -0.036368586 -0.02358633 0.011750402 -0.046541486 0.011344784
0.050043605 -0.054823827 0.018511325 -0.045456897 -0.06053743 -0.031024983 -0.018243063 0.041379645
0.0150396805 -0.053416263 0.017189372 0.028134326 -0.019770803 -0.05225583 0.0328181 -0.037700236
-0.013024591 0.019087352 -0.04987205 -0.06203785 0.038211465 -0.030746732 -0.06912125 -0.020512093
-0.065344445 -0.0032930363 -0.05842821 -0.049377155 0.046431877 0.03145386 -0.0010064691 -0.007069358
-0.057923086 0.017911375 0.012703606 -0.0077864393 0.0046783793 -0.052640397 -0.057615656 -0.005367812
-0.022028625 0.02783605 0.028400142 -0.03816235 -0.037989624 -0.044722345 -0.00017634779 -0.009562007
-0.0708486 0.0058047534 -0.047982097 -0.06025182 -0.024591614 0.04167076 0.0222528 0.004623463
-0.0515169 0.014190955 -0.006278073 0.0363097 -0.022731502 -0.027143858 -0.026079126 -0.009668029
0.042529237 0.03436687 -0.05781162 0.05125919 -0.017410867 -0.05431497 0.01709065 0.0034676557
0.009082307 0.005645333 -0.039336465 -0.02724924 0.032241225 -0.056346223 -0.059535615 0.02104664
0.02126002 -0.00368512 0.005622039 -0.02877688 0.024976974 0.049506985 0.003739865 0.019350851
0.0050690374 -0.005609204 0.01683853 -0.016932197 0.022431195 -0.0689339 -0.030801274 0.04376357
-0.06737293 -0.027951924 -0.045555025 0.0095819915 -0.001382795 0.017759569 0.040345486 0.039985366
-0.03052841 -0.04111687 0.0062933373 -0.058847234 -0.048895422 -0.041984383 0.03147274 0.027609542
-0.05183925 -0.045268197 -0.058304053 -0.017023465 -0.01361947 0.020380119 0.0463456 -0.03380168
0.019795066 0.008901067 0.038892884 0.05177579 -0.012170871 -0.044870634 0.024526604 0.04383871
-0.06336764 -0.027277155 -0.048387334 0.01954581 -0.021312235 -0.046615075 0.015364862 -0.007878762
-0.059406184 0.037393425 -0.05653625 -0.0015060127 -0.05681289 -0.02227037 0.0008812342 0.027251147
0.050020352 0.004770158 -0.029181927 -0.0018031467 0.003502879 0.006300129 0.014273885 -0.0470455
-0.037681203 -0.05338386 -0.019490734 -0.06730759 0.012707256 0.013142194 -0.065866984 -0.0399065
-0.012679336 -0.07087644 0.025203394 -0.013810925 0.021277256 0.05079469 -0.06514944 0.014479876
0.013144628 -0.004172321 -0.06602179 -0.0073867035 0.020912027 0.02807909 -0.05923579 -0.04611506
-0.035191305 -0.026805446 0.009999748 -0.01777149 -0.003133753 -0.04043753 -0.00297972 0.017626692
-0.009521112 0.03751455 -0.05995538 -0.0069697388 0.017161397 -0.066999495 -0.034646235 -0.06674871
0.04630594 -0.050640754 0.040881243 -0.0386732 -0.05626685 0.017442092 -0.06915098 -0.030325912
0.018253617 0.0052919285 -0.027411759 -0.042113397 -0.061172273 -0.008856485 -0.05473878 -0.059391916
-0.0061533316 0.018705945 -0.03505487 0.040692266 -0.051537674 -0.030887343 7.3617004e-05 -0.029556235
0.005837794 0.0033315967 -0.06902917 -0.033207763 0.0005916153 -0.027491698 -0.06666504 -0.056368485

fc3.bias f4 [128]
00000000: fa6b 84bd 9c76 33c1 91d8 97bc 4856 993c
00000010: 84e4 33c1 5a79 493d db22 31c1 24f4 33c1
00000020: c5cf e53c 6c78 22bd 2916 32c1 7e80 2dc1
00000030: 2c6c 35c1 c7f4 30c1 16ec 36bd 6111 acbd
00000040: 395f 30c1 6142 34c1 4e28 31c1 2334 d23b
00000050: 56b4 35c1 da17 0bbd a4f9 34c1 b904 2ec1
00000060: 6a80 2ec1 9c07 2ec1 5b0c 31c1 0ed9 2f3d
00000070: 3e13 31c1 ad2e 2a3d 5c11 87bc 003d 0fbd
00000080: 013d 68c1 7596 32c1 58d0 55bd 9013 503c
00000090: b2ee 053d 34b8 9e3b c599 8e3c badd c7bb
000000a0: da36 2bc1 28c3 86bd f679 7dbd 4e6b 273d
000000b0: abe0 3ebd bf98 9dbc d20a 7dbd e9c0 2ec1
000000c0: 3b0c 2ec1 8d1b 6abc c401 2ec1 7611 d7bb
000000d0: 8b04 053d 02b0 2cc1 c4d8 263c 90dc 31c1
000000e0: 6273 32c1 f480 18bd bb56 e23c a70c 37c1
000000f0: 0db1 33c1 aea2 2fc1 06e2 35c1 241d 98bc
00000100: 1601 35c1 e9eb 3e3d 7174 2dc1 6ca9 f93c
00000110: 8afc 31c1 3ef4 2ec1 d7c3 babc f379 2ec1
00000120: 2958 2dc1 8567 33c1 5db1 35c1 afca de3c
00000130: f4a0 34c1 5030 51bd 6288 30c1 318c 8dbd
00000140: 7b20 2ac1 e42c 4dc1 d144 b0bc 7118 32c1
00000150: 1398 82bd 56c5 433d 6e6b 2dc1 1ed1 32c1
00000160: 50d0 2fc1 2897 81bd bc19 2ec1 3267 33c1
00000170: e3d7 3ebd 9e65 34c1 e501 9fbd 5644 30c1
00000180: 1bba 813c 5356 34c1 74e5 2cc1 a335 29bd
00000190: 8cbb 103d 9dc2 2fc1 fd49 33c1 dbd1 503d
000001a0: 4de5 35c1 2a4e 36c1 b588 4dbd 6198 33c1
000001b0: 8198 863b 9fa4 463d 4fa2 2ec1 6dc9 5bbd
000001c0: e3e5 34c1 5749 2ec1 5323 2ec1 3ff2 2ac1
000001d0: 9033 d33c 8a4b 31c1 5a4f 2ec1 120f 35c1
000001e0: 6274 023d 49c4 1b3c 14b7 77bd 40bc b1bc
000001f0: d92b 0e3d 6a55 33c1 8abc 2fc1 0a85 e83c
-0.064659074 -11.216457 -0.018535884 0.0187179 -11.24329 0.049187995 -11.07101 -11.247105
0.028053174 -0.039665624 -11.13041 -10.84387 -11.338909 -11.05976 -0.044658743 -0.08401752
-11.023248 -11.266206 -11.07234 0.0064149066 -11.356527 -0.033958293 -11.310947 -10.876153
-10.906351 -10.876858 -11.065516 0.04293161 -11.067198 0.04154842 -0.01648777 -0.034970284
-14.514894 -11.161733 -0.052200645 0.012699977 0.03269834 0.004843736 0.017407307 -0.00609943
-10.7008915 -0.06580192 -0.06188389 0.040873818 -0.04660098 -0.019237874 -0.061777897 -10.922097
-10.877986 -0.014288795 -10.875431 -0.006563361 0.032475036 -10.792971 0.010183517 -11.116348
-11.15317 -0.037232354 0.027629247 -11.440589 -11.230725 -10.977217 -11.3676815 -0.018568583
-11.312765 0.0466117 -10.840928 0.030476294 -11.124155 -10.934629 -0.022798462 -10.904773
-10.834023 -11.212773 -11.355802 0.027196256 -11.289295 -0.051071465 -11.033297 -0.06911505
-10.63293 -12.82346 -0.02151719 -11.130967 -0.06376662 0.047795616 -10.838728 -11.176054
-10.988358 -0.06327659 -10.881283 -11.212694 -0.046592604 -11.274809 -0.07764033 -11.016684
0.015835812 -11.271075 -10.806019 -0.041310918 0.03533511 -10.985013 -11.205564 0.050981384
-11.368482 -11.394083 -0.050179202 -11.224702 0.0041075354 0.04849684 -10.914626 -0.05365889
-11.306125 -10.892905 -10.883624 -10.684142 0.025781423 -11.080942 -10.894373 -11.316179
0.031849273 0.009507247 -0.06047733 -0.02169621 0.034709785 -11.208353 -10.98353 0.02838375

fc4.weight f4 [4, 128]
00000000: a787 b0bc 06a4 3c3f 0f64 b53c c366 863d
00000010: d05c 493f 8de5 813c 6820 3d3f 7775 3e3f
00000020: cffd 793d 139f 6abd 26ba 363f 77c1 473f
00000030: f639 353f 5cd8 523f ce74 593d 1c8c 663c
00000040: 7397 413f 7aac 353f 803e 4e3f 785e 05bd
00000050: 2277 3b3f 1870 75bc 1e82 413f 5b0b 4d3f
00000060: 1c39 353f 10f3 4e3f 757e 393f d8a5 1fbd
00000070: 06fc 463f 32f9 34bd 416e 2a3d 57e1 5a3b
00000080: 4633 983d d366 4d3f de57 c2bc 5c18 c9bc
00000090: 899e d9bc cf09 cf3d d6f6 46bd 21de 2f3c
000000a0: 6050 333f 186f f93c 0cf1 b53c 0436 8fbd
000000b0: dcfe 8ebd ddb0 7ebd ebbd 863c ce9f 363f
000000c0: 5604 3f3f 3f2c a9ba 62a8 543f a0ad e5bc
000000d0: 2f8c 243c fc24 533f 2c34 2bbd e77c 453f
000000e0: cb2b 433f 6147 f0bc d119 74bd 8af4 3f3f
000000f0: 1b1f 493f ace7 3d3f d94f 333f d484 be3d
00000100: f08b 4e3f f5dc 433d b6a2 513f 1c3f 703c
00000110: 4ec5 473f 1541 393f 255c d13d 385a 4c3f
00000120: 8c94 473f 7951 3f3f 1529 343f 2ac6 76bd
00000130: ba83 2a3f 3dcf aa3d 3b44 4c3f 4ada 85bd
00000140: a89c 463f ca0d 403e f69f 21bd 8c0d 4c3f
00000150: 1371 bab8 b337 61bd 470a 4e3f 267a 3d3f
00000160: 6cc5 553f 732e 1cbd 36e1 303f 77ab 3b3f
00000170: 4593 26bd 17f0 303f dc98 9fbc 8e61 3c3f
00000180: e218 733c 1afd 3b3f d383 543f c379 28bd
00000190: f21b bcbc 8b96 433f 8402 493f 6d4d f6bc
000001a0: e821 4f3f 1c93 433f cdbb 72bd 3bbd 423f
000001b0: 6679 40bd cf9c 48bd 6c61 4d3f 7ad7 95bd
000001c0: 6298 393f 7842 4b3f dd32 423f 46f1 433f
000001d0: 4cae ebbc b2cc 3f3f 7b8e 463f edc6 483f
000001e0: 29b8 ac3c d594 93bd bb2d e63c 68e6 803d
000001f0: 0bdc f2bc 0094 353f faaf 2b3f 1ee3 47bd
00000200: ea95 32bd 2e58 7b3f 60d7 d0bc b0eb 5bbd
00000210: 67e8 6d3f 9769 c9bb d9f5 723f 17bd 823f
00000220: 6938 4c3d 70f6 9c3c ac07 873f 2cc9 7d3f
00000230: 9abd 883f 8147 7f3f f1d2 15bd 93a2 bcbc
00000240: f0d4 6a3f b7a7 803f 82f0 6c3f 7b97 823d
00000250: 0301 6f3f 1869 05bd 551d 733f 5774 753f
00000260: c153 893f 144b 753f 750b 813f 4142 adbd
00000270: 689d 843f f05d 6a3d 0f6a f0bc 2b07 7f3d
00000280: e6a5 3d3d bb68 833f b081 95bd 94d5 013d
00000290: 499e c0bc 2b48 4abd b1dc fb3c b1c8 c43c
000002a0: 8e08 853f 5984 6ebc 8561 87bd 6968 a5bd
000002b0: 1bc8 2f3d 3907 293d d84b 8fbd ef15 853f
000002c0: 4b43 863f cca2 eebc fe8b 743f 3411 0ebd
000002d0: bb41 e23b 8ad4 6d3f 9b80 3cbc 3824 823f
000002e0: de9f 783f 6cdb 9cbd 48db 82bd 946b 713f
000002f0: 0fb5 773f 462b 833f 1243 833f 3021 68bd
00000300: 5f09 6b3f ca86 6bbd 6ec2 873f c3d0 9dbd
00000310: 994f 7b3f fde8 803f b65b 46bb cad0 863f
00000320: f05f 813f 031e 843f a77b 823f 6cc4 6abd
00000330: 450f 733f 81c9 09bd 45d0 7b3f d7d8 be3d
00000340: 1f81 853f e89e 573e 2bb8 283d b9ab 833f
00000350: 1627 90bd 56bd 68ba 30b5 7c3f e46b 7b3f
00000360: 6ca1 843f c99a 34bd 6199 873f 3d53 713f
00000370: 9f48 90bd 5ba9 763f e0ca 9e3d adbd 6f3f
00000380: a22f 89bd 1e9e 703f 6b99 863f 7128 4fbd
00000390: a35b 74bd b8ef 843f 9f16 783f a997 39bd
000003a0: 331a 753f 47c7 703f d12e 063d 2c8f 863f
000003b0: dffb adba 87e3 8ebd 2c81 853f 7f69 47bd
000003c0: 9441 813f 4a1e 8b3f bb81 883f 63f7 893f
000003d0: 1c7e 87bc f011 703f 18e3 7e3f 5ced 773f
000003e0: e8b2 8ebb f451 463d 4dd3 a3bd 8352 63bd
000003f0: 17b7 89bd f014 813f b139 823f e907 4ebd
-0.02154906 0.7368778 0.022142438 0.06562569 0.78657246 0.015856529 0.73877573 0.7439799
0.061033066 -0.05728061 0.7137779 0.7802958 0.70791566 0.8236139 0.05308991 0.014071491
0.7562172 0.70966303 0.8056412 -0.032560796 0.7322866 -0.0149803385 0.7558917 0.8009545
0.70790267 0.80839634 0.72458583 -0.03897652 0.7772831 -0.044182964 0.041609053 0.0033398473
0.07431655 0.8023502 -0.023723539 -0.024547748 -0.026564853 0.10109293 -0.048575245 0.010734112
0.7004452 0.030448481 0.022209667 -0.069927245 -0.06982204 -0.06218039 0.016447982 0.7133759
0.7461599 -0.0012906863 0.8306943 -0.028036892 0.010043188 0.8247831 -0.0417978 0.7714371
0.762387 -0.029330911 -0.059594933 0.7498251 0.7856309 0.7418163 0.7004371 0.09302679
0.8068228 0.047818143 0.818889 0.014663484 0.7803544 0.7236493 0.10222653 0.7982516
0.7796104 0.7473369 0.70375186 -0.060247578 0.6660725 0.08340309 0.7979161 -0.06535776
0.7758279 0.1875526 -0.03945919 0.7970817 -8.890233e-05 -0.05498476 0.8048443 0.7401451
0.83504367 -0.038130235 0.69093645 0.7330851 -0.04066779 0.6911635 -0.019482069 0.73586357
0.0148374755 0.7343308 0.8301365 -0.041131746 -0.022962544 0.76401585 0.78519464 -0.030066216
0.8091111 0.76396346 -0.059261132 0.7606999 -0.046990775 -0.04897767 0.8022678 -0.073164895
0.7249814 0.793983 0.7585886 0.7654003 -0.028769635 0.74921715 0.7756116 0.78428537
0.021083908 -0.07206122 0.028097978 0.062939465 -0.02964594 0.70928955 0.67065394 -0.04880058
-0.0436 0.98181427 -0.025493324 -0.053691566 0.9293274 -0.0061466205 0.94906384 1.0213956
0.049858484 0.01916048 1.0549216 0.9913509 1.0682862 0.9971848 -0.036578123 -0.02302674
0.91731167 1.0051183 0.92554486 0.06376549 0.9336092 -0.03257093 0.9496663 0.95880646
1.0728685 0.95817685 1.0081621 -0.084599026 1.0360537 0.057218492 -0.029347448 0.062262695
0.04630079 1.0266336 -0.073001266 0.031697825 -0.023512976 -0.04938523 0.030744882 0.024021478
1.0393236 -0.014557921 -0.06610397 -0.08076555 0.042915445 0.041266654 -0.06996888 1.0397319
1.0489286 -0.029130362 0.9552611 -0.034684375 0.0069048083 0.92902434 -0.011505271 1.0167303
0.9711894 -0.07659039 -0.06389481 0.94304776 0.9676065 1.0247581 1.0254843 -0.056672275
0.91811174 -0.05750159 1.060621 -0.07705834 0.9816833 1.0071102 -0.0030267066 1.0532467
1.0107403 1.0321659 1.0193986 -0.05731623 0.94945174 -0.033639435 0.9836467 0.09318703
1.043003 0.21056712 0.04119126 1.028678 -0.07038705 -0.0008878311 0.9871397 0.98211503
1.0361762 -0.044092927 1.0593683 0.94267637 -0.070451014 0.96352166 0.07753539 0.936488
-0.06698538 0.9399127 1.051557 -0.050575677 -0.059657704 1.0385656 0.9690952 -0.04531065
0.957431 0.94054073 0.03275949 1.0512443 -0.0013273916 -0.06976991 1.0430045 -0.048684593
1.0098138 1.0868618 1.0664591 1.0778621 -0.016539626 0.9377737 0.9956527 0.96846557
-0.0043548234 0.048418 -0.07999287 -0.05549861 -0.06724375 1.0084515 1.0173856 -0.050300512

fc4.bias f4 [4]
00000000: 92a4 8041 ae38 b440 6895 0342 e90a 4ec1
16.080357 5.631919 32.895905 -12.877664
